p1_navigation/checkpoint1.pth (torch_old, 20624 bytes, 8 tensors)

hidden_layer.0.weight f4 [64, 37]
0.05797957 0.10008792 -0.10083028 -0.07546525 -0.05444353 0.19453709 -0.0039644507 0.08457413
-0.08140774 -0.24239895 -0.015002306 -0.021969825 -0.09094079 -0.06663786 -0.03618172 0.067760475
0.07184122 0.112792276 -0.06851343 -0.057030868 0.09434566 0.14201854 0.021697942 0.1747196
0.005444299 0.10140295 0.14853501 -0.13911434 -0.06552179 -0.025558878 0.03750544 0.10421672
-0.06931002 -0.044080716 -0.1270672 -0.112116486 -0.06650001 0.17786734 0.07267462 0.07589168
0.026870191 -0.11685022 0.15033334 -0.16990383 -0.17938793 -0.2162048 -0.24450357 0.098307595
-0.07578153 0.032496665 0.12296172 0.15087497 0.10121456 0.011338964 0.09411902 -0.08092902
0.00373175 -0.12803458 -0.11915047 -0.053318724 0.096264504 0.060863473 -0.034118224 0.027372906
0.06978798 -0.012330567 -0.02598187 0.113956474 0.050915968 0.15941128 -0.12859862 -0.119947985
0.053069193 0.096965656 0.08025822 0.11518425 0.0017115615 -0.17117852 0.026368646 -0.2536583
-0.16166951 0.18853404 0.17256002 0.14206421 -0.018491736 -0.032678723 -0.09545318 -0.12035636
0.046645816 -0.15859689 0.038175415 0.07026603 0.091162056 0.0745038 -0.20481327 -0.12301547
0.027080983 -0.0033237608 -0.1271907 -0.18685341 0.13898882 0.11278335 -0.1038291 -0.016859842
-0.27543116 0.021170173 -0.13752246 -0.14472796 0.046011433 0.02751456 -0.061719842 0.20980756
-0.016967498 0.2275434 0.13382833 -0.15971437 0.14993869 0.096435264 0.040683564 -0.003536585
-0.028173074 0.093789615 -0.07741676 0.1649927 -0.07353121 -0.114931405 -0.02371995 0.05364834
-0.01781958 -0.057328485 -0.01397709 0.1009373 -0.0329488 0.07156595 0.16434684 -0.041855667
0.16588165 0.0063470216 0.106569596 0.16958459 0.12506992 0.2281758 0.25803724 0.045013543
-0.1294694 -0.09923401 0.10030311 -0.0099225845 -0.03752697 -0.10540729 -0.13137598 -0.11054028
-0.03826801 0.23618929 0.100815624 -0.23017527 -0.015088737 -0.47319975 -0.0067146965 -0.064205445
0.030021302 -0.00045547602 -0.13763033 -0.08267376 -0.019679395 0.005431605 -0.045394264 0.06385241
-0.12836535 -0.0037780507 0.18432452 -0.010425774 0.19530159 0.14964777 -0.14407659 0.079404674
0.006447266 -0.07025288 0.22774921 -0.15829155 0.020306032 -0.01751704 0.09965436 0.038650867
0.054917645 -0.034496497 -0.07817746 -0.061971333 -0.17166404 0.044836115 -0.0619625 0.08588142
-0.015381897 0.10787927 0.084482 -0.13061579 -0.081897825 -0.071085446 -0.16492847 -0.022013132
-0.07272913 0.08698902 -0.13670772 -0.17896904 -0.15858312 0.078241736 -0.082768716 0.09451439
-0.026794976 -0.009383762 -0.13343343 -0.021698268 0.011457356 -0.07693399 -0.026139008 -0.085429795
-0.12510568 -0.12364528 0.10565103 -0.14891915 -0.0053333426 0.066257335 0.06957836 -0.031633954
-0.17882352 0.072507605 -0.07787874 0.036582485 -0.094672985 -0.105661206 -0.10392384 -0.01673542
-0.012540579 0.12569858 0.0970663 -0.13836019 0.07032047 -0.11056208 -0.10338929 -0.0038910944
0.005332018 0.14238183 -0.08311807 -0.050299175 0.058720544 -0.14876233 0.1813547 -0.0999509
-0.029117538 -0.10433377 -0.13351893 0.008384471 0.14131394 -0.13620512 -0.11340291 -0.059186608
00000000: fc7b 6d3d e5fa cc3d 1b80 cebd 868d 9abd
00000010: 2e00 5fbd bb34 473e 39e8 81bb 3435 ad3d
00000020: 1ab9 a6bd 6e37 78be 3bcc 75bc 10fa b3bc
00000030: 2a3f babd 6e79 88bd 4933 14bd 01c6 8a3d
00000040: 7d21 933d a3ff e63d c550 8cbd 3399 69bd
00000050: 4c38 c13d 4f6d 113e e2bf b13c b2e9 323e
00000060: 1766 b23b 5aac cf3d 9019 183e fd73 0ebe
00000070: 4a30 86bd da60 d1bc 4e9f 193d 936f d53d
00000080: 69f2 8dbd fb8d 34bd e71d 02be 549d e5bd
00000090: 2831 88bd db22 363e 6ed6 943d 196d 9b3d
000000a0: e01e dc3c 2b4f efbd fcf0 193e 45fb 2dbe
000000b0: 78b1 37be cb64 5dbe 255f 7abe 7e55 c93d
000000c0: 5933 9bbd 391b 053d 5bd3 fb3d f87e 1a3e
000000d0: 9449 cf3d 10c7 393c 79c1 c03d 1dbe a5bd
000000e0: 6090 743b 7f1b 03be 2905 f4bd bc64 5abd
000000f0: 5326 c53d fa4b 793d 8dbf 0bbd 253d e03c
00000100: 00ed 8e3d 2606 4abc eed7 d4bc 0362 e93d
00000110: 438d 503d b63c 233e 5baf 03be 4aa7 f5bd
00000120: 155f 593d ee95 c63d 6c5e a43d b8e5 eb3d
00000130: 7956 e03a 6c49 2fbe 0f03 d83c 80df 81be
00000140: b18c 25be 110f 413e 93b3 303e 4879 113e
00000150: fb7b 97bc 20da 05bd f57c c3bd 657d f6bd
00000160: af0f 3f3d 3967 22be d35d 1c3d a3e7 8f3d
00000170: 2cb3 ba3d 7395 983d 92ba 51be 89ef fbbd
00000180: f0d8 dd3c 74d3 59bb 473e 02be 8056 3fbe
00000190: 1653 0e3e f5fa e63d 5aa4 d4bd a71d 8abc
000001a0: 5005 8dbe 126d ad3c b0d2 0cbe 9133 14be
000001b0: 7c76 3c3d 3766 e13c f2cd 7cbd cbd7 563e
000001c0: 6cff 8abc 2301 693e 4b0a 093e 2a8c 23be
000001d0: 8789 193e da7f c53d cfa3 263d 0dc6 67bb
000001e0: 38cb e6bc c514 c03d ae8c 9ebd d9f3 283e
000001f0: 8897 96bd 2861 ebbd 5750 c2bc 5dbe 5b3d
00000200: 5efa 91bc 46d1 6abd 2a00 65bc 37b8 ce3d
00000210: 52f5 06bd 2b91 923d 8a4a 283e d970 2bbd
00000220: e1dc 293e adfa cf3b 2941 da3d 95a7 2d3e
00000230: 5412 003e eba6 693e 751d 843e 1f60 383d
00000240: a093 04be 333b cbbd b86b cd3d 5692 22bc
00000250: e1b5 19bd c7df d7bd 6d87 06be f162 e2bd
00000260: ebbe 1cbd 9bdb 713e 6c78 ce3d 11b3 6bbe
00000270: c036 77bc 3d47 f2be f506 dcbb 257e 83bd
00000280: 3cef f53c f5cc eeb9 f7ee 0cbe dc50 a9bd
00000290: af36 a1bc 9bfb b13b 56ef 39bd 0dc5 823d
000002a0: 3572 03be 2c99 77bb 91bf 3c3e ded0 2abc
000002b0: 24fd 473e 443d 193e d088 13be eb9e a23d
000002c0: 9643 d33b bee0 8fbd 1737 693e 2e17 22be
000002d0: d658 a63c e57f 8fbc 9617 cc3d 5f50 1e3d
000002e0: 53f1 603d 334c 0dbd 811b a0bd a7d5 7dbd
000002f0: b3c8 2fbe 13a6 373d 64cc 7dbd 99e2 af3d
00000300: 5a04 7cbc cfef dc3d e604 ad3d 25c0 05be
00000310: 0cba a7bd 3f95 91bd 02e3 28be e254 b4bc
00000320: 03f3 94bd 4d27 b23d 1cfd 0bbe a943 37be
00000330: 9d63 22be 343d a03d a582 a9bd c390 c13d
00000340: 2381 dbbc 5abe 19bc c6a2 08be 91c0 b1bc
00000350: a2b7 3b3c 918f 9dbd 7921 d6bc d1f5 aebd
00000360: b41b 00be bd39 fdbd 915f d83d 437e 18be
00000370: 52c3 aebb edb1 873d 197f 8e3d 9b92 01bd
00000380: 831d 37be de7e 943d e47e 9fbd 84d7 153d
00000390: e9e3 c1bd e764 d8bd 06d6 d4bd b818 89bc
000003a0: 0077 4dbc 21b7 003e b2ca c63d 4bae 0dbe
000003b0: 2e04 903d 5f6e e2bd c4bd d3bd bb01 7fbb
000003c0: 35b8 ae3b 8bcc 113e cf39 aabd 8206 4ebd
000003d0: f484 703d 2755 18be 0cb5 393e 0fb3 ccbd
000003e0: e787 eebc f2ac d5bd 30b9 08be 055f 093c
000003f0: 9ab4 103e 5b79 0bbe c93f e8bd a86d 72bd

hidden_layer.0.bias f4 [64]
0.20325133 -0.0018511368 -0.20376652 0.051704466 0.2003821 -0.11790661 -0.11110089 0.0016882496
0.010173376 -0.061705742 0.14238729 -0.054274943 0.09863791 0.12608443 -0.1372692 -0.009192004
0.1648637 -0.0149453 -0.028739445 -0.019797426 -0.14766699 -0.054227475 0.03531388 -0.045721654
-0.15460862 0.119092576 -0.034610827 -0.22490877 0.25924796 0.11254231 -0.16983768 -0.11186051
0.067488775 0.12074446 -0.00381193 0.19442192 0.040231414 0.04032641 -0.12577279 -0.24174985
-0.043949287 0.113776684 -0.21082163 0.18402793 -0.030254519 -0.018646257 0.12314545 -0.25442663
-0.048495855 0.16541651 -0.044888638 0.08116535 0.0013013273 -0.14782836 -0.23503274 -0.023003714
0.1469938 -0.12569815 -0.112133175 -0.044483613 0.015283054 -0.00014493342 0.030909961 0.072050914
00000000: 1e21 503e d8a1 f2ba 2ca8 50be 10c8 533d
00000010: f730 4d3e 0579 f1bd dd88 e3bd 4248 dd3a
00000020: 3bae 263c 29bf 7cbd f9cd 113e 674f 5ebd
00000030: ac02 ca3d 471c 013e 4c90 0cbe 0f9a 16bc
00000040: 08d2 283e 22dd 74bc fc6e ebbc 362e a2bc
00000050: 0436 17be a11d 5ebd 49a5 103d a146 3bbd
00000060: b951 1ebe cfe6 f33d 15c4 0dbd 7c4e 66be
00000070: 26bc 843e 957c e63d eee9 2dbe 2017 e5bd
00000080: 8e37 8a3d df48 f73d 93d1 79bb 8a16 473e
00000090: b2c9 243d 4e2d 253d 95ca 00be 468d 77be
000000a0: 2b04 34bd c003 e93d a0e1 57be d171 3c3e
000000b0: 53d8 f7bc 09c0 98bc af33 fc3d 3544 82be
000000c0: 97a3 46bd f262 293e 26dd 37bd 053a a63d
000000d0: 4c91 aa3a 5160 17be 6cac 70be 4972 bcbc
000000e0: 8b85 163e 04b7 00be 14a6 e5bd 7334 36bd
000000f0: c665 7a3c 45f9 17b9 e336 fd3c 6e8f 933d

hidden_layer.1.weight f4 [32, 64]
-0.0065023107 0.058601156 0.17611918 0.033826176 0.07034176 -0.061987936 -0.008771121 0.006103839
0.045740962 -0.040468067 -0.03668729 -0.04290595 -0.07993844 0.01042228 0.07022449 -0.013238408
-0.10987627 -0.080624335 0.041161004 0.0076681934 -0.0556615 -0.015567871 0.05435667 -0.06298861
-0.10530066 -0.020648127 0.143079 0.034703095 -0.0436095 -0.094202824 0.17253907 -0.033922542
0.13465784 0.012526985 -0.00036540156 0.011524633 -0.07707047 0.05463785 0.07965998 0.02647306
-0.19720839 -0.09485271 0.15577716 -0.06513181 0.11955832 -0.06671914 -0.12446556 0.10264365
-0.089997806 -0.07085055 -0.07877449 -0.0312098 -0.111673154 -0.081787065 0.09542599 -0.02423358
-0.0918057 0.08825636 -0.12859562 0.058942754 0.05445248 0.0761168 -0.05993929 -0.0254692
0.07517116 0.09954888 -0.13569067 0.14466764 0.09525455 0.051531494 -0.10334384 0.09180623
-0.024991708 0.04174173 -0.0006476623 0.09612813 -0.12929042 0.13716845 -0.16467115 0.063485004
0.16562626 0.01645739 -0.10363233 0.072268106 0.030573087 -0.10240574 0.0539073 -0.036748435
-0.040383056 0.016904842 -0.17868395 -0.100496426 0.08198375 -0.06912611 -0.010050886 -0.08978673
-0.08354774 0.04094514 0.06399248 -0.07181532 0.061722685 0.095624484 0.055695157 -0.21400228
0.010074116 0.06686993 -0.08161799 -0.10921892 -0.14790872 -0.0677928 -0.10822906 -0.08550753
-0.099252895 -0.034406833 0.058626704 0.09272579 -0.087401465 0.024199778 -0.0491408 -0.017675886
-0.089731604 -0.06051403 0.10436507 0.11302589 -0.1311899 0.022692628 -0.03175579 0.021888485
-0.10072459 -0.073446676 0.065160684 -0.08457975 0.080022 0.060093224 -0.06632344 0.016396562
0.09551999 -0.06048022 -0.005391457 0.03618026 0.017882084 0.12841621 -0.03240406 -0.0053291097
-0.10531929 0.082414575 0.050764993 -0.010439892 -0.1025405 0.12221096 -0.017885018 0.021007178
-0.020074785 0.13583049 0.09420724 0.14292744 -0.048473347 0.16440658 0.0678633 0.026971754
-0.13948503 -0.08779951 -0.16786087 0.069498554 0.101350516 0.06367081 0.048517242 0.0481383
0.16946043 -0.045896895 -0.0027446933 -0.1023081 -0.10520468 0.026303705 0.03337792 -0.042183086
0.034242634 -0.093047105 -0.09501238 0.05341074 -0.11918046 0.08063455 -0.1266993 -0.1134687
0.0011372219 -0.14485437 0.15925387 0.11968167 -0.07659646 0.0647037 0.032503616 0.032456998
-0.024226928 -0.11777627 0.13901305 -0.16869694 -0.06207737 9.251535e-05 -0.016284453 -0.031622987
-0.107089125 -0.0783921 -0.0267052 0.13739453 -0.026373228 0.0011558356 0.107076734 -0.05872532
-0.06440719 -0.023663346 0.009823464 -0.075378306 0.03522924 0.11904649 -0.017341526 0.03890547
0.0746365 0.026068509 0.09128212 0.06437003 0.06828512 -0.19062999 0.1242566 0.012832036
0.031942375 -0.06474652 0.060453594 0.10815834 -0.11264434 0.041109953 0.10213016 0.14016916
-0.07332579 0.047259692 0.0746875 -0.020175809 0.00073916395 0.027194811 0.030092346 0.03715892
0.033864394 -0.011409949 -0.13369486 0.013770865 0.083760545 0.028981501 0.021059478 0.10450483
-0.11614686 0.0232489 -0.06213566 0.12118316 -0.12319329 -0.02826725 -0.07797331 -0.02552484
00000000: 5611 d5bb c407 703d 9658 343e 518d 0a3d
00000010: 570f 903d 10e7 7dbd bfb4 0fbc b602 c83b
00000020: e05a 3b3d d8c1 25bd 6945 16bd 26be 2fbd
00000030: c4b6 a3bd 36c2 2a3c dbd1 8f3d e8e5 58bc
00000040: cf06 e1bd 5f1e a5bd 7198 283d 7845 fb3b
00000050: 50fd 63bd 6210 7fbc 19a5 5e3d 2c00 81bd
00000060: dfa7 d7bd 4326 a9bc 4d83 123e d524 0e3d
00000070: e09f 32bd 69ed c0bd 15ae 303e 5df2 0abd
00000080: bfe3 093e fc3d 4d3c 5e93 bfb9 d0d1 3c3c
00000090: 1fd7 9dbd f0cb 5f3d c624 a33d 08de d83c
000000a0: fff0 49be 2342 c2bd 0c84 1f3e d463 85bd
000000b0: feda f43d 0ba4 88bd cde7 febd d536 d23d
000000c0: c550 b8bd 181a 91bd 8554 a1bd b2ab ffbc
000000d0: e5b4 e4bd fa7f a7bd b46e c33d 8085 c6bc
000000e0: a004 bcbd c0bf b43d 92ae 03be f56d 713d
000000f0: 9009 5f3d 20e3 9b3d e782 75bd c9a4 d0bc
00000100: 56f3 993d 48e0 cb3d 7ff2 0abe c123 143e
00000110: d114 c33d b012 533d efa5 d3bd e804 bc3d
00000120: 69bb ccbc 60f9 2a3d e2c7 29ba d3de c43d
00000130: b564 04be e375 0c3e 8e9f 28be 6d04 823d
00000140: ee99 293e a6d1 863c 303d d4bd 4d01 943d
00000150: 6974 fa3c 1aba d1bd e7cd 5c3d 8785 16bd
00000160: b468 25bd 067c 8a3c edf8 36be 12d1 cdbd
00000170: 19e7 a73d fd91 8dbd 79ac 24bc 1be2 b7bd
00000180: 141b abbd 17b6 273d 7d0e 833d e913 93bd
00000190: edd0 7c3d c5d6 c33d 9b20 643d 6a23 5bbe
000001a0: e80d 253c 1af3 883d 5527 a7bd 2bae dfbd
000001b0: 6275 17be f4d6 8abd 33a7 ddbd 921e afbd
000001c0: 1a45 cbbd 2eee 0cbd 8e22 703d 05e7 bd3d
000001d0: 8aff b2bd 9d3e c63c dd47 49bd 05cd 90bc
000001e0: 34c5 b7bd 8fdd 77bd 5bbd d53d 1e7a e73d
000001f0: a556 06be e4e5 b93c 5c12 02bd 7b4f b33c
00000200: b248 cebd 366b 96bd f772 853d 2638 adbd
00000210: 93e2 a33d 5024 763d 95d4 87bd 1552 863c
00000220: fc9f c33d 1bba 77bd d2aa b0bb c131 143d
00000230: 737d 923c 8a7f 033e 1fba 04bd d09f aebb
00000240: a4b1 d7bd f9c8 a83d f4ee 4f3d 150c 2bbc
00000250: c100 d2bd bd49 fa3d 9a83 92bc 3f17 ac3c
00000260: e073 a4bc 2617 0b3e baef c03d 925b 123e
00000270: fd8b 46bd 335a 283e eafb 8a3d def3 dc3c
00000280: 2ad5 0ebe 3bd0 b3bd b8e3 2bbe 4255 8e3d
00000290: dc90 cf3d d765 823d 04ba 463d ab2c 453d
000002a0: 0987 2d3e 62fe 3bbd 50e0 33bb e986 d1bd
000002b0: 8d75 d7bd de7a d73c 49b7 083d 2cc8 2cbd
000002c0: 0142 0c3d 7b8f bebd da95 c2bd 38c5 5a3d
000002d0: e314 f4bd ba23 a53d 76bd 01be 4762 e8bd
000002e0: d60e 953a b454 14be 7213 233e aa1b f53d
000002f0: 9bde 9cbd 6083 843d 8322 053d a1f1 043d
00000300: 8d77 c6bc af34 f1bd 7059 0e3e e4be 2cbe
00000310: d744 7ebd cd04 c238 f966 85bc 1b87 01bd
00000320: 8b51 dbbd 0a8c a0bd ddc4 dabc 27b1 0c3e
00000330: ab0c d8bc 687f 973a 0c4b db3d f689 70bd
00000340: ebe7 83bd a2d9 c1bc 98f2 203c f15f 9abd
00000350: 894c 103d a5ce f33d d10f 8ebc 585b 1f3d
00000360: 05db 983d a08d d53c 1ff2 ba3d 6fd4 833d
00000370: 12d9 8b3d 8234 43be 3f7a fe3d 763d 523c
00000380: 02d6 023d d399 84bd 309e 773d 1f82 dd3d
00000390: 13b2 e6bd e962 283d 9e29 d13d 8188 0f3e
000003a0: d52b 96bd 6193 413d c3f5 983d bd47 a5bc
000003b0: 74c4 413a a7c7 de3c 3984 f63c f433 183d
000003c0: 64b5 0a3d cbf0 3abc 4ee7 08be 329f 613c
000003d0: a68a ab3d 9d6a ed3c ed84 ac3c a106 d63d
000003e0: 68de edbd 7a74 be3c f681 7ebd e02e f83d
000003f0: c34c fcbd b890 e7bc 79b0 9fbd 7819 d1bc

hidden_layer.1.bias f4 [32]
-0.111551896 -0.03153628 -0.1449627 -0.14945859 0.10567439 0.10159673 -0.1258407 -0.10969455
0.04003297 -0.2594531 -0.0022728236 -0.077182055 -0.007872539 0.19202036 0.08057723 0.0012422759
-0.024580253 0.055429295 0.2039045 -0.044600233 0.17008351 -0.16244905 0.12361081 -0.020854708
0.075971 -0.20038897 0.05506682 0.19551848 0.077289924 0.11436826 0.08812384 0.18346408
00000000: 5275 e4bd 302c 01bd 1a71 14be ac0b 19be
00000010: d16b d83d f211 d03d 62dc 00be 89a7 e0bd
00000020: 9df9 233d 09d7 84be a7f3 14bb a011 9ebd
00000030: d2fb 00bc fca0 443e ad05 a53d ddd3 a23a
00000040: 875c c9bc d409 633d 57cc 503e bcae 36bd
00000050: 5f2a 2e3e 0b59 26be aa27 fd3d 7ed7 aabc
00000060: af96 9b3d c432 4dbe bf8d 613d ff35 483e
00000070: 2e4a 9e3d e839 ea3d 467a b43d 02de 3b3e

hidden_layer.2.weight f4 [8, 32]
-0.026138417 -0.15862933 0.19041587 0.038779262 -0.12931833 0.12951788 0.1213025 0.077037424
-0.048743166 0.009130754 0.12796392 0.13841133 0.06676325 0.123001054 -0.037763007 0.060872637
-0.19454558 0.10879692 -0.22232555 -0.16000369 -0.22148563 0.14209811 0.0306796 -0.006626214
-0.009470876 0.015905747 -0.090242684 -0.1416189 -0.041099075 -0.1400342 0.023838796 0.059204515
-0.15749535 0.11181691 -0.17240763 -0.07214942 0.017414518 0.02540189 0.1379567 0.010926586
-0.10072705 -0.112562604 -0.0058577587 -0.14881375 -0.13195473 -0.025505783 -0.02487313 -0.13735498
-0.011566087 0.12501515 0.20289329 -0.022537243 -0.088925555 -0.10666664 0.10923577 0.075974226
-0.04790318 -0.18640037 0.017462065 0.005331982 0.05312654 -0.08366541 0.12415074 0.049145583
-0.042085107 -0.13282958 0.13101715 -0.026656415 0.094553635 -0.10018886 -0.18077339 -0.12564592
-0.120752916 -0.08980086 -0.037995905 0.12538846 -0.15432023 0.13145827 0.12092972 -0.016407115
-0.022783507 0.0014016154 0.07596051 0.10483003 0.0072271815 -0.09838193 -0.03983336 -0.1507268
0.06520081 -0.16034718 -0.014554816 0.043303553 0.09147366 0.16196561 -0.10329103 0.1732849
0.13499267 0.16073771 0.010886886 0.14989516 0.06016564 -0.114002176 -0.07793537 0.04567105
-0.16660325 -0.06643006 0.120624006 0.102589965 0.118334904 0.043900337 -0.077189416 0.106689975
0.02768847 0.028564442 -0.062079463 0.1044742 -0.119298756 0.1250119 0.1749741 0.06469906
0.14789179 0.11813154 -0.101545416 -0.14862481 -0.011108261 0.12078755 -0.025315283 0.0043752794
0.11847902 0.08097606 0.13920777 0.044506628 -0.022620702 -0.019207543 -0.008889167 -0.049246237
0.078241 0.15311944 0.04585145 0.03901651 -0.08769791 -0.13196602 -0.011890194 -0.12682575
-0.12582757 -0.028217515 -0.026854876 0.077437826 -0.13186567 0.121369734 -0.15215082 -0.07156713
-0.062000677 0.030456085 0.055323053 -0.050134126 -0.008762563 -0.044721812 -0.07496382 -0.045765836
0.05318673 -0.18904659 -0.10723921 0.113299064 0.099258 -0.0053384374 0.0037496432 -0.004298785
0.07420777 -0.11459299 -0.01802652 -0.15845317 -0.124528654 -0.06478708 -0.03146129 0.1452781
-0.0014886849 -0.019544538 -0.014302592 0.08245028 -0.07415912 -0.017048521 -0.08470209 -0.14839806
-0.017730778 -0.17071949 -0.10234969 -0.13624412 0.15786427 -0.16722773 0.14699352 0.07231526
-0.13021174 0.17703602 -0.09087542 -0.15279359 -0.02981413 0.06667053 -0.18970954 -0.012308395
0.04356169 -0.111002155 0.011663984 -0.10282686 -0.09716887 0.1826806 -0.16961414 -0.026824206
0.13759908 -0.09825248 0.12921429 -0.12188571 0.23074017 0.032520447 0.01686383 -0.12875304
0.010213354 0.019436877 -0.0033642065 0.035495907 -0.22178446 -0.17374998 0.00758998 0.1839159
-0.00059014617 0.03648266 -0.027991058 -0.08305298 -0.015152287 -0.06863825 0.12873739 0.10474203
-0.11861182 0.070615694 -0.05637746 -0.05661741 -0.049799576 -0.071457386 -0.06947622 0.03959036
0.05636552 -0.018431703 -0.02582099 0.020501941 -0.110859774 0.12029659 0.10494207 -0.029132154
0.031017726 0.16166666 0.048743073 -0.18553707 -0.068054475 -0.16374563 0.05602977 0.12533928
00000000: 3c20 d6bc ba6f 22be 61fc 423e 01d7 1e3d
00000010: 066c 04be 56a0 043e 726d f83d ccc5 9d3d
00000020: eaa6 47bd 2899 153c f908 033e b3bb 0d3e
00000030: 2cbb 883d fae7 fb3d 62ad 1abd 9655 793d
00000040: f536 47be ebd0 de3d 4fa9 63be 02d8 23be
00000050: 21cd 62be 2b82 113e c953 fb3c b620 d9bb
00000060: bc2b 1bbc c54c 823c 28d1 b8bd 8b04 11be
00000070: 8157 28bd 2065 0fbe 9449 c33c 6f80 723d
00000080: 7646 21be 4400 e53d a08b 30be 13c3 93bd
00000090: e4a8 8e3c a017 d03c 8544 0d3e 6c05 333c
000000a0: fc49 cebd 3987 e6bd 71f2 bfbb a262 18be
000000b0: 241f 07be 81f1 d0bc bcc2 cbbc c9a6 0cbe
000000c0: af7f 3dbc f903 003e 42c3 4f3e 06a0 b8bc
000000d0: 9a1e b6bd 0a74 dabd 01b7 df3d 6098 9b3d
000000e0: 2036 44bd bddf 3ebe 9b0c 8f3c e8b7 ae3b
000000f0: 379b 593d c558 abbd be42 fe3d e14c 493d
00000100: 6f61 2cbd 7a04 08be 5c29 063e 8e5e dabc
00000110: 56a5 c13d d12f cdbd a91c 39be 53a9 00be
00000120: 4e4d f7bd 83e9 b7bd 98a1 1bbd d565 003e
00000130: 1f06 1ebe ff9c 063e 00aa f73d 3768 86bc
00000140: 7aa4 babc 69b6 b73a 2f91 9b3d 20b1 d63d
00000150: fed1 ec3b 777c c9bd 4e28 23bd 2058 1abe
00000160: 0188 853d 0d32 24be 5377 6ebc 115f 313d
00000170: 8b56 bb3d 50da 253e 3f8a d3bd 9971 313e
00000180: 853b 0a3e 6d98 243e e95e 323c 1e7e 193e
00000190: 3f70 763d f979 e9bd 949c 9fbd 9111 3b3d
000001a0: 0b9a 2abe 7c0c 88bd b809 f73d b01a d23d
000001b0: 9259 f23d d7d0 333d 7c15 9ebd 4680 da3d
000001c0: eed2 e23c faff e93c 0947 7ebd 92f6 d53d
000001d0: e852 f4bd 1f03 003e 692c 333e f180 843d
000001e0: f270 173e f3ee f13d 0bf7 cfbd 1a31 18be
000001f0: 6cff 35bc 775f f73d ff61 cfbc 815e 8f3b
00000200: 21a5 f23d c7d6 a53d 7b8c 0e3e 954c 363d
00000210: 0d4f b9bc 2359 9dbc dea3 11bc 6cb6 49bd
00000220: d13c a03d 58cb 1c3e bbce 3b3d c7cf 1f3d
00000230: f69a b3bd 1a22 07be 17cf 42bc 9cde 01be
00000240: f1d8 00be 6b28 e7bc c2fe dbbc b997 9e3d
00000250: cb07 07be b290 f83d 6dcd 1bbe ca91 92bd
00000260: 6cf4 7dbd 0a7f f93c 6d9a 623d 7159 4dbd
00000270: da90 0fbc 382e 37bd a286 99bd f574 3bbd
00000280: 54da 593d 6e95 41be 3ba0 dbbd 5709 e83d
00000290: c747 cb3d 0fee aebb 93bc 753b d2dc 8cbb
000002a0: 3efa 973d bbaf eabd 5aac 93bc 8c41 22be
000002b0: e108 ffbd 17af 84bd 8edd 00bd c8c3 143e
000002c0: fa1f c3ba de1b a0bc 6b55 6abc b1db a83d
000002d0: bde0 97bd 57a9 8bbc 4a78 adbd a9f5 17be
000002e0: 2340 91bc 17d1 2ebe b79c d1bd 9483 0bbe
000002f0: 2ca7 213e bf3d 2bbe 7885 163e 061a 943d
00000300: 3a56 05be ee48 353e e41c babd ec75 1cbe
00000310: c33c f4bc 8f8a 883d 3843 42be 26a9 49bc
00000320: be6d 323d 1955 e3bd 4b1a 3f3c e496 d2bd
00000330: 7900 c7bd a010 3b3e 54af 2dbe 70be dbbc
00000340: c6e6 0c3e 9938 c9bd c050 043e 379f f9bd
00000350: 2747 6c3e 2934 053d 0426 8a3c d6d7 03be
00000360: e955 273c 163a 9f3c 057a 5cbb 2864 113d
00000370: 771b 63be 84eb 31be 5eb5 f83b 7354 3c3e
00000380: 0ab4 1aba d76e 153d 814d e5bc ae17 aabd
00000390: 4c41 78bc 3692 8cbd bcd3 033e fd82 d63d
000003a0: c1ea f2bd f69e 903d 0dec 66bd a8e7 67bd
000003b0: a4fa 4bbd 4058 92bd 8c49 8ebd 8029 223d
000003c0: 88df 663d 15fe 96bc 8a86 d3bc b0f3 a73c
000003d0: 730a e3bd 0f5e f63d deeb d63d 8ea6 eebc
000003e0: e318 fe3c f28b 253e d1a6 473d 6efd 3dbe
000003f0: 2560 8bbd efac 27be 797f 653d f158 003e

hidden_layer.2.bias f4 [8]
-0.19165191 0.13412952 0.11720916 -0.22632909 0.00124346 0.11407287 0.122010484 -0.08507813
00000000: 6640 44be 4059 093e 5b0b f03d d0c2 67be
00000010: 98fb a23a 099f e93d a2e0 f93d 713d aebd

output.weight f4 [4, 8]
0.017832026 0.26302177 0.2952562 -0.0077648987 0.06431996 0.001169549 0.20417729 -0.10401439
-0.33102632 0.23546807 0.1628359 -0.023116322 0.020971252 0.07857756 0.19729568 0.11606815
-0.25421882 0.060847826 0.050457004 -0.12681821 -0.32119167 0.09292227 0.2063931 -0.16615364
0.3471218 0.08063033 0.1503686 -0.136523 -0.28921124 -0.13157853 0.010801703 -0.16110498
00000000: 7814 923c caaa 863e d22b 973e b170 febb
00000010: 2fba 833d 8d4b 993a da13 513e 7f05 d5bd
00000020: 487c a9be 8b1e 713e 74be 263e 715e bdbc
00000030: e7cb ab3c 46ed a03d e107 4a3e 23b5 ed3d
00000040: f828 82be 923b 793d 01ac 4e3d a2dc 01be
00000050: 3c73 a4be 084e be3d b658 533e 2e24 2abe
00000060: f3b9 b13e 8421 a53d 3afa 193e afcc 0bbe
00000070: 7f13 94be 86bc 06be a0f9 303c b4f8 24be

output.bias f4 [4]
0.3807219 -0.122441456 -0.045490693 -0.1254074
00000000: fbed c23e 96c2 fabd 7354 3abd cc6a 00be
