p2_continuous-control/checkpoint_critic.pth (torch_old, 151815 bytes, 5 tensors)

fcs1.weight f4 [200, 33]
0.18983288 0.26869416 -0.05303221 -0.7039315 0.41916856 -0.17478439 -0.39482492 -0.06832276
-0.053609338 -0.37586373 0.08519451 0.12038838 0.12797165 -0.1729179 -0.09745144 -0.23443517
0.6831382 -0.4841608 -0.15541396 -0.37716085 0.062302038 -0.10917386 0.21666603 0.007174012
-0.032843795 -0.0647677 -0.08170468 1.7476661 0.05348827 0.042176887 -1.7581055 0.009240881
-0.21718583 0.07824958 0.753757 0.3683133 -0.8056529 -0.13662468 0.09186821 0.010486117
0.0841378 -0.5467572 -0.19557995 -0.17694849 -0.10891679 0.14182949 -0.14600681 -0.2406403
-0.25306126 0.45150208 0.07705123 0.5163711 -0.39298362 -0.16043143 -0.0051850956 0.19152771
-0.19918174 -0.06525673 -0.14859219 0.0404687 1.5555934 -0.038328193 -0.051621236 -1.6528198
-0.01853031 -0.81204945 -0.025437888 0.44232732 -0.05178901 -0.75152826 0.23536298 0.24670419
-0.565969 -0.20526886 -0.03302005 -0.119111665 0.09535537 0.064582825 0.096822955 0.02988902
0.05061881 -0.037180357 0.19757822 -0.10589519 0.17772995 -0.06372358 0.05122006 0.117221184
-0.09110713 0.10883363 0.049175795 0.040240806 -0.0733061 1.9196529 -0.23981419 -0.021339238
-1.9832363 -0.03531252 -0.30870888 -0.3141489 0.887242 0.061402712 -0.49273324 0.23361203
0.4047155 0.0057550776 -0.07357197 0.40907985 0.1953304 -0.0800447 0.13268386 -0.09930863
-0.20037402 0.12340001 0.093187384 0.371964 0.4314006 1.13959 -0.008180318 0.16318348
-0.01753672 0.17596805 0.11866715 -0.011397894 -0.04974783 0.16296569 1.0379063 -0.25108662
-0.05705458 -1.0906745 0.026961185 1.525431 -0.54651767 -0.22935887 0.010406474 0.14201084
0.028851707 -0.63156706 0.018362602 0.13656418 0.16657986 -0.096977 -0.03166482 -0.040287077
-0.042937 0.8386809 0.07913322 -0.21646215 0.4303542 -0.017622465 -0.042078577 -0.13459589
-0.18654728 0.037861425 0.09491189 0.10347426 0.016574068 0.05883151 -0.5000498 0.6018454
0.2057621 0.0044833645 -0.60471845 -0.058580566 -0.37225986 -0.2132179 0.38962713 0.011041201
-1.0628939 -0.47825864 -0.030471083 -0.20262761 0.027448373 -0.47688204 -0.056411386 0.07856154
0.11359292 -0.008659637 0.1693165 -0.19149138 -0.09749799 0.2670115 0.11425728 0.31839293
-0.02222414 -0.07811952 0.11990949 -0.26679572 0.18390006 0.056225512 -0.039193124 -0.16624832
1.6918461 -0.14154595 -0.0640318 -1.6258392 -0.021450352 0.23460762 0.3076709 0.053089175
-0.41588593 -0.42452204 -0.5529639 -0.51246065 -0.2798974 0.007885506 0.023699984 0.14378646
0.17631327 0.15837531 0.043006487 -0.32456663 0.15573965 0.13786852 -0.4689235 0.24432333
0.29581994 -0.14056613 -0.113195166 0.07613585 0.18487999 0.17608231 -0.021932704 -0.047332544
-0.020766802 1.5254878 -0.08475065 -0.048798475 -1.6249765 0.019845374 -0.5653058 -0.07726176
0.42595434 -0.013604561 -0.62893695 0.5976844 1.5726215 0.14100519 0.19285448 -0.043548767
-0.011695421 -0.12279107 -0.08090195 0.17217465 -0.58171654 -0.22863992 0.34095505 0.34637195
-0.09859922 -0.37697747 0.16554517 -0.018540043 0.12868033 -0.0557548 -0.1917991 -0.1507273
00000000: 8d63 423e 4892 893e 4d38 59bd db34 34bf
00000010: 439d d63e aefa 32be 7e26 cabe ceec 8bbd
00000020: 7795 5bbd 3671 c0be 767a ae3d 2f8e f63d
00000030: 000b 033e 6411 31be 9f94 c7bd c60f 70be
00000040: 25e2 2e3f ede3 f7be d624 1fbe 3a1b c1be
00000050: 6c30 7f3d 8b96 dfbd b3dd 5d3e f913 eb3b
00000060: 3787 06bd eea4 84bd c954 a7bd 86b3 df3f
00000070: 8416 5b3d acc1 2c3d 9a09 e1bf 1067 173c
00000080: f665 5ebe 5141 a03d 38f6 403f 9093 bc3e
00000090: 453f 4ebf 57e7 0bbe 6625 bc3d f6cd 2b3c
000000a0: 7050 ac3d 48f8 0bbf 1c46 48be fc31 35be
000000b0: c40f dfbd c03b 113e cf82 15be 696a 76be
000000c0: 3f91 81be 482b e73e 09cd 9d3d e530 043f
000000d0: 2635 c9be 2348 24be bce7 a9bb d71f 443e
000000e0: 4cf6 4bbe 52a5 85bd 8d28 18be 82c2 253d
000000f0: af1d c73f 06fe 1cbd ca70 53bd 998f d3bf
00000100: e0cc 97bc 79e2 4fbf 1e63 d0bc ba78 e23e
00000110: b720 54bd 2864 40bf fe02 713e 06a0 7c3e
00000120: 58e3 10bf 0032 52be 0840 07bd d1f0 f3bd
00000130: ad49 c33d 0044 843d 1d4b c63d d1d9 f43c
00000140: ab55 4f3d 6e4a 18bd f251 4a3e 94df d8bd
00000150: d7fe 353e 8281 82bd 20cc 513d a911 f03d
00000160: 6096 babd 2be4 de3d 8f6c 493d 8bd3 243d
00000170: 8221 96bd 30b7 f53f da91 75be a0cf aebc
00000180: b0da fdbf dca3 10bd 170f 9ebe 20d8 a0be
00000190: 4b22 633f 6981 7b3d 8847 fcbe fe37 6f3e
000001a0: df36 cf3e 1795 bc3b e7ac 96bd ea72 d13e
000001b0: b104 483e 7aee a3bd 47de 073e 5362 cbbd
000001c0: d92e 4dbe 25b9 fc3d 07d9 be3d 1172 be3e
000001d0: 8ae0 dc3e 16de 913f be06 06bc 9219 273e
000001e0: 2ba9 8fbc f830 343e c307 f33d 3bbe 3abc
000001f0: 61c4 4bbd 7ae0 263e 1dda 843f 6d8e 80be
00000200: 10b2 69bd 399b 8bbf b4dd dc3c 5341 c33f
00000210: 95e8 0bbf 0ddd 6abe ea7f 2a3c 4a6b 113e
00000220: 6a5a ec3c 61ae 21bf 2b6d 963c 7bd7 0b3e
00000230: e993 2a3e e19b c6bd f8b2 01bd 1004 25bd
00000240: b5de 2fbd cbb3 563f 9910 a23d 41a8 5dbe
00000250: 6357 dc3e fd5c 90bc 965a 2cbd 81d3 09be
00000260: 4006 3fbe 9514 1b3d 2a61 c23d 50ea d33d
00000270: 57c6 873c 4ff9 703d 4403 00bf 8a12 1a3f
00000280: 4db3 523e 30e9 923b d4ce 1abf 2df2 6fbd
00000290: d898 bebe cb55 5abe 357d c73e 27e6 343c
000002a0: e80c 88bf 51de f4be 7e9e f9bc 9d7d 4fbe
000002b0: 69db e03c e229 f4be a00f 67bd dfe4 a03d
000002c0: 68a3 e83d 26e1 0dbc 4e61 2d3e 5116 44be
000002d0: 07ad c7bd bbb5 883e b9ff e93d 6604 a33e
000002e0: 660f b6bc 20fd 9fbd 1b93 f53d 7399 88be
000002f0: 4c50 3c3e b94c 663d f888 20bd 003d 2abe
00000300: 6a8e d83f 6cf1 10be 1b23 83bd 801b d0bf
00000310: a6b8 afbc fb3c 703e 0a87 9d3e 0974 593d
00000320: 00ef d4be f45a d9be 0b8f 0dbf 9f30 03bf
00000330: b64e 8fbe 3632 013c 7826 c23c c23c 133e
00000340: 778b 343e 232d 223e 9227 303d 992d a6be
00000350: 377a 1f3e 682d 0d3e be16 f0be e52f 7a3e
00000360: b675 973e 91f0 0fbe ded2 e7bd 1ded 9b3d
00000370: 2e51 3d3e ec4e 343e 37ac b3bc c5df 41bd
00000380: 241f aabc 2f43 c33f c091 adbd e9e0 47bd
00000390: 3bff cfbf c492 a23c e2b7 10bf 6a3b 9ebd
000003a0: b016 da3e aae5 5ebc 0302 21bf d801 193f
000003b0: a94b c93f aa63 103e a57b 453e 3160 32bd
000003c0: 279e 3fbc e279 fbbd ecaf a5bd 8d4e 303e
000003d0: 60eb 14bf 9520 6abe a991 ae3e aa57 b13e
000003e0: 63ee c9bd 3103 c1be ac84 293e 4ae1 97bc
000003f0: c7c4 033e 255f 64bd fc66 44be 4258 1abe

fcs1.bias f4 [200]
-1.8419902 -1.6371412 -1.9735671 -0.9352427 -0.69547826 -1.7542527 -1.410556 -1.1011573
-1.7122287 -0.82846516 -1.6240106 -1.4244703 0.9057759 -1.2101313 -1.6997858 0.39982006
-1.3884512 -1.7084832 -1.3540308 -1.5379733 -0.9868775 -0.9095364 -1.3160379 -1.6633798
-1.3918282 -1.3466854 -1.373174 -1.3584883 -1.0158595 -0.6031936 -1.3011701 -1.139435
-1.3112915 -1.521264 -1.7671486 -1.0169572 -1.8877131 -0.07199903 -1.1737981 -1.5759947
-0.76494074 -1.5620278 -0.58608013 -1.6359969 0.62817264 -1.6628078 -0.29409686 -1.8984033
-0.5579795 -1.4630706 -0.45604017 -1.7663862 -1.2807082 -1.8231664 -1.4293766 -0.9369226
-1.5439193 -1.5256338 -1.7160686 -2.1346848 -1.0089384 -0.7120218 -1.6359187 -1.8274105
-1.490212 -1.5257689 -1.1985936 -1.4196059 -1.6605002 -0.71096236 -0.48711222 -0.77144885
-1.7285386 -1.1627754 -1.217733 -0.32975817 1.2515191 -1.9353404 -1.5808855 -1.6042942
-1.60425 1.2805029 -1.7352701 -0.8133886 -1.624678 -1.0804366 -0.9515133 -1.2729433
-1.8588696 -1.643926 -1.6905097 -1.4031806 -1.7475907 -0.6629686 -1.4184792 -1.6887125
-1.6052372 -1.6272826 -0.44410625 -1.5862484 -0.35917085 -0.9117707 -1.5900221 -1.4170152
-1.8406631 -1.3997774 -0.47814253 -1.7265027 -1.7135712 -0.7546973 -1.3069388 -1.5852768
-0.55506676 -1.717486 0.09747681 -1.215683 -1.5210774 -1.7640202 -1.7401837 -1.2825204
-1.2295449 -1.8824515 -1.2059278 -0.86068404 -1.8614819 -1.5946896 -1.2293237 -1.5294712
-1.2067858 -0.9492299 -1.793729 -1.6832142 -1.2021359 -0.28314534 0.3566082 -1.2981575
-0.65086126 -1.060965 -0.97712344 -1.9008499 -1.2398567 -1.4768336 -1.333863 -0.7551126
-2.0732517 0.17399797 -0.06491018 -1.8345819 -1.7744728 -1.123218 -0.882735 -1.3979509
-0.90750706 -1.5795383 -0.7187596 -0.9290017 -0.81341636 -0.8544133 -1.9177736 -1.2013751
-1.715004 0.0025160916 -0.9200262 -0.549668 -1.3919493 -1.6719967 -0.5854041 -1.3389404
-1.3517747 -1.0960903 -1.1759871 -0.14177519 -1.2340755 -1.876948 -1.6846135 -1.1422846
-1.0720816 -0.31482485 -1.1642712 -1.821597 -1.2455262 -1.7158161 0.05253467 -1.4072236
0.23880497 -1.7083409 0.5321896 -0.5365704 -1.5545338 -1.0150136 -1.5132256 -0.49002728
-0.022757594 -0.957387 -0.8234635 -1.6916156 -1.463301 -1.4268572 -0.17394286 -1.8915511
00000000: 56c6 ebbf d88d d1bf d99d fcbf 116c 6fbf
00000010: dd0a 32bf 5a8b e0bf 198d b4bf b9f2 8cbf
00000020: 4f2a dbbf 4b16 54bf 94df cfbf 0b55 b6bf
00000030: eee0 673f 95e5 9abf 9592 d9bf 37b5 cc3e
00000040: c5b8 b1bf 94af dabf e250 adbf 4fdc c4bf
00000050: 01a4 7cbf 61d7 68bf ee73 a8bf a1e9 d4bf
00000060: 6d27 b2bf 3060 acbf 2ac4 afbf f2e2 adbf
00000070: af07 82bf e56a 1abf be8c a6bf 02d9 91bf
00000080: 66d8 a7bf c7b8 c2bf ed31 e2bf a72b 82bf
00000090: 95a0 f1bf 3a74 93bd 043f 96bf 32ba c9bf
000000a0: 28d3 43bf 87f0 c7bf 5909 16bf 5968 d1bf
000000b0: eccf 203f e3d6 d4bf dd93 96be e1fe f2bf
000000c0: bfd7 0ebf e645 bbbf 197e e9be f118 e2bf
000000d0: 3fee a3bf 845d e9bf d0f5 b6bf 29da 6fbf
000000e0: 269f c5bf f847 c3bf 23a8 dbbf ad9e 08c0
000000f0: e524 81bf 1047 36bf c965 d1bf 96e8 e9bf
00000100: 44bf bebf 654c c3bf 846b 99bf a5b5 b5bf
00000110: 458b d4bf a101 36bf c666 f9be ac7d 45bf
00000120: c140 ddbf d3d5 94bf adde 9bbf 10d6 a8be
00000130: c731 a03f 3cb9 f7bf 755a cabf 8359 cdbf
00000140: 1058 cdbf 85e7 a33f 551d debf 3c3a 50bf
00000150: 73f5 cfbf bf4b 8abf 6096 73bf ceef a2bf
00000160: 70ef edbf 2b6c d2bf 9f62 d8bf 6c9b b3bf
00000170: 0db1 dfbf 4fb8 29bf ba90 b5bf bb27 d8bf
00000180: 6a78 cdbf cc4a d0bf e561 e3be 300a cbbf
00000190: 3ee5 b7be ce69 69bf d885 cbbf c160 b5bf
000001a0: d99a ebbf e82b b3bf 19cf f4be 0afe dcbf
000001b0: 4d56 dbbf d833 41bf c549 a7bf 5aea cabf
000001c0: db18 0ebf 95d6 dbbf eca1 c73d 809b 9bbf
000001d0: aab2 c2bf 6acb e1bf 57be debf a129 a4bf
000001e0: ba61 9dbf 2cf4 f0bf d85b 9abf ca55 5cbf
000001f0: 0a45 eebf ca1e ccbf 7b5a 9dbf b6c5 c3bf
00000200: f577 9abf bb00 73bf e998 e5bf 9073 d7bf
00000210: 97df 99bf 6df8 90be 5a95 b63e 062a a6bf
00000220: d89e 26bf b3cd 87bf c324 7abf 0d4f f3bf
00000230: a0b3 9ebf e208 bdbf 06bc aabf 0f4f 41bf
00000240: 28b0 04c0 862c 323e a1ef 84bd 94d3 eabf
00000250: ed21 e3bf 9cc5 8fbf ecfa 61bf 0ef0 b2bf
00000260: 6252 68bf 502e cabf a100 38bf 0ed3 6dbf
00000270: 0e3c 50bf d4ba 5abf 9b79 f5bf a9c6 99bf
00000280: 4085 dbbf 03e5 243b d686 6bbf 0bb7 0cbf
00000290: 652b b2bf fd03 d6bf 0bdd 15bf 6662 abbf
000002a0: f406 adbf b04c 8cbf bf86 96bf 842d 11be
000002b0: 30f6 9dbf d53f f0bf 6aa1 d7bf 6236 92bf
000002c0: f839 89bf b930 a1be d706 95bf 172a e9bf
000002d0: 676d 9fbf dd9f dbbf 982e 573d e71f b4bf
000002e0: 4a89 743e eaaa dabf 943d 083f ae5c 09bf
000002f0: f7fa c6bf f7eb 81bf 60b1 c1bf dbe4 fabe
00000300: 226e babc 5017 75bf 81ce 52bf dc86 d8bf
00000310: 724d bbbf 42a3 b6bf 141e 32be 591e f2bf

fc2.weight f4 [150, 204]
0.60474366 0.07268767 0.42850327 -0.44483572 0.20901653 0.3823358 0.52206767 0.38756067
-0.64290076 -0.84751374 -0.6503424 0.71583015 -0.121323936 -0.98154193 -0.40083718 -0.52640015
-0.39851165 -0.13592513 -0.5863195 -0.6077793 0.3334316 0.00658724 0.27766657 0.018892484
-0.48049173 -0.501538 0.7805844 -0.2823657 -0.24227187 -0.89922166 -0.7783451 0.23893109
0.22989537 0.46993572 0.35429755 0.32634416 0.055414673 -0.28520042 -0.09691576 -0.12246534
-0.41158804 -0.10201779 -0.45860726 0.10945167 -1.4463525 -0.008989024 -0.55390984 -0.005332947
0.29806742 -0.28430036 -0.3866975 0.18685588 0.5084032 0.12315335 0.011984706 -0.27413547
0.5815961 -0.600054 0.20237386 0.22999357 0.3280581 0.53598434 0.45386374 -0.41363695
-0.020632628 -0.3906552 -0.1801673 -0.52667767 0.59778243 0.33844844 -0.4938999 -0.07171819
-0.7250292 0.43872353 -0.47038913 -0.32323062 0.06505793 -0.13001837 -0.5834036 0.08584526
0.83426815 -0.008056409 -0.20105706 0.19207095 0.43520388 0.30656806 -0.15559289 0.46244773
0.059483696 0.6524714 0.00231533 -0.33337498 -0.36805624 0.15331408 0.4853509 -0.66119564
0.119341545 -0.04175085 -0.6283472 -0.30285037 -0.34597987 -0.5893434 -0.7560493 0.11655279
-0.34648848 -0.95653504 -0.9428461 0.16279396 0.33787087 -0.3831813 -0.5918282 0.14739817
0.36696315 -0.23937312 0.4872744 -0.2896473 -0.22691971 0.6653049 -0.69948727 -0.027323417
-0.025585404 -0.30050096 0.34127048 -0.48855934 0.39089802 -0.37662005 0.37561285 -0.6313569
0.18155776 0.008620533 -0.00023382323 -0.46553758 -0.18815637 -0.256673 -0.4600696 -0.1757081
-0.11081432 -0.308706 -0.49449167 0.73389405 -0.105348766 -0.20934044 -0.41034722 -0.65566033
0.43769187 -0.41977564 0.07315407 0.56482124 -0.15364663 -0.19625899 0.13052613 -0.3792749
0.5054255 -0.35764435 0.35771284 -0.3645773 -0.15712519 -0.3353874 0.27488846 0.37263697
0.6362353 0.70024127 -0.45365742 -0.43886477 -0.5688669 -0.41778943 0.27318838 0.3161388
-0.011594118 -0.7391355 -0.1623894 0.036379285 -0.0369435 0.07477507 0.5188031 0.38003656
-0.8374264 0.737402 0.21007375 -0.32941106 -0.17579049 -0.0076046544 -0.85442305 -0.05244989
-0.31199586 -0.13835347 0.018445088 0.42121154 -0.49256334 0.08642217 -0.7492047 0.106174104
0.002548804 0.031119026 0.31206515 -0.07909028 0.19895265 0.2057201 -0.04201138 -0.057421636
0.15709129 0.35578448 -0.52189535 0.44120634 -0.08878963 -0.18919823 -0.054838434 -0.002040734
0.08828079 0.10199432 -0.16372286 -0.19938818 0.06323184 0.1979488 -0.48031592 -0.09652791
-0.27423257 -0.26610193 -0.19190916 -0.65445226 0.47849464 -0.05122132 -0.48398447 -0.41400224
-0.16529019 -0.56220025 0.103805184 0.24098663 0.12597284 0.26692542 -0.100368306 0.5062935
0.34847325 -0.32663524 0.2870964 0.22711997 0.32342967 -0.03839483 -0.032071352 -0.4327282
-0.16521841 -0.6082672 0.034123577 0.0027667494 0.00828869 -0.193451 0.16322795 -0.06503724
0.1696088 0.04175784 -0.14269511 -0.044806313 0.2667291 -0.077084914 -0.17914726 -0.17396848
00000000: 7bd0 1a3f 46dd 943d c864 db3e 82c1 e3be
00000010: 6e08 563e 85c1 c33e 3aa6 053f 5a6e c63e
00000020: 2595 24bf a9f6 58bf d77c 26bf a540 373f
00000030: af78 f8bd 5546 7bbf 883a cdbe 29c2 06bf
00000040: b809 ccbe f52f 0bbe 0919 16bf 6d97 1bbf
00000050: 8cb7 aa3e c6d9 d73b 502a 8e3e 69c4 9a3c
00000060: 0303 f6be cb64 00bf 61d4 473f 3d92 90be
00000070: 1e16 78be 6433 66bf a041 47bf 5aaa 743e
00000080: b169 6b3e 6a9b f03e 7d66 b53e 9516 a73e
00000090: 7ffa 623d ca05 92be c57b c6bd 1ccf fabd
000000a0: abbb d2be b4ee d0bd 92ce eabe 3228 e03d
000000b0: 1422 b9bf b346 13bc 09cd 0dbf 00c0 aebb
000000c0: 4b9c 983e d18f 91be 37fd c5be 2657 3f3e
000000d0: b626 023f d337 fc3d 805b 443c 7c5b 8cbe
000000e0: 7be3 143f 249d 19bf 183b 4f3e 6f83 6b3e
000000f0: 3bf7 a73e 4536 093f d460 e83e 39c8 d3be
00000100: c205 a9bc f503 c8be c77d 38be 59d4 06bf
00000110: 4508 193f 1d49 ad3e 73e0 fcbe fde0 92bd
00000120: 839b 39bf 5fa0 e03e d8d6 f0be 7c7e a5be
00000130: 183d 853d 8923 05be f059 15bf a4cf af3d
00000140: 9992 553f 07ff 03bc e7e1 4dbe 3fae 443e
00000150: 0bd3 de3e 7df6 9c3e be53 1fbe f3c5 ec3e
00000160: 2da5 733d 5e08 273f cbbc 173b 20b0 aabe
00000170: de71 bcbe 5efe 1c3e ea7f f83e 1e44 29bf
00000180: 5769 f43d f002 2bbd 5ddb 20bf 340f 9bbe
00000190: 4624 b1be 36df 16bf 728c 41bf 3bb3 ee3d
000001a0: f066 b1be 7bdf 74bf 5d5e 71bf 76b3 263e
000001b0: 69fd ac3e 5730 c4be 0e82 17bf 8cef 163e
000001c0: 98e2 bb3e 3a1e 75be 087c f93e a74c 94be
000001d0: a45d 68be 6c51 2a3f 9911 33bf 5cd5 dfbc
000001e0: 7b98 d1bc 43db 99be 01bb ae3e 7324 fabe
000001f0: c923 c83e 58d4 c0be 5450 c03e 9ba0 21bf
00000200: 47ea 393e 233d 0d3c 722e 75b9 f15a eebe
00000210: 10ac 40be a56a 83be 3e8e ebbe d3ec 33be
00000220: 9ef2 e2bd b60e 9ebe 032e fdbe 7be0 3b3f
00000230: 18c1 d7bd 575d 56be 0819 d2be 5bd9 27bf
00000240: 2619 e03e d5ec d6be cdd1 953d 2098 103f
00000250: 8b55 1dbe 1ef8 48be a4a8 053e 5230 c2be
00000260: 9163 013f 291d b7be 2326 b73e e0a9 babe
00000270: 6de5 20be e6b7 abbe 2ebe 8c3e 46ca be3e
00000280: 51e0 223f 0343 333f c945 e8be e2b2 e0be
00000290: 43a1 11bf 7fe8 d5be 59df 8b3e f2dc a13e
000002a0: 41f5 3dbc fc37 3dbf 6849 26be 7202 153d
000002b0: 1152 17bd ac23 993d 48d0 043f 2794 c23e
000002c0: 9461 56bf 61c6 3c3f 931d 573e 91a8 a8be
000002d0: 6c02 34be 7730 f9bb 78bb 5abf b2d5 56bd
000002e0: ecbd 9fbe 88ac 0dbe 271a 973c 0aa9 d73e
000002f0: 4331 fcbe 1bfe b03d e1cb 3fbf cf71 d93d
00000300: d609 273b 54ed fe3c 01c7 9f3e 16fa a1bd
00000310: 3eba 4b3e 4aa8 523e 2014 2cbd f332 6bbd
00000320: 8adc 203e 6229 b63e ef9a 05bf cce5 e13e
00000330: 56d7 b5bd 2ebd 41be 449e 60bd d6bd 05bb
00000340: 8fcc b43d 66e2 d03d f7a6 27be 6a2c 4cbe
00000350: b27f 813d 17b3 4a3e f8eb f5be 6db0 c5bd
00000360: 3668 8cbe 833e 88be d683 44be 2f8a 27bf
00000370: 40fd f43e 72cd 51bd d0cc f7be 1af8 d3be
00000380: d541 29be 5bec 0fbf d097 d43d 33c5 763e
00000390: 06ff 003e 73aa 883e e68d cdbd 739c 013f
000003a0: 166b b23e bc3c a7be 4dfe 923e 2392 683e
000003b0: 9398 a53e e643 1dbd 405d 03bd 8d8e ddbe
000003c0: 042f 29be 66b7 1bbf 2ac5 0b3d 5a52 353b
000003d0: 49cd 073c 0518 46be 3a25 273e 3f32 85bd
000003e0: eead 2d3e 450a 2b3d ab1e 12be d386 37bd
000003f0: b790 883e b2de 9dbd 6172 37be cb24 32be

fc2.bias f4 [150]
-0.23347116 -0.09353808 -0.99149287 -1.8564683 -0.96969503 -0.4332946 0.73027796 0.94592535
-1.2959108 -0.5259997 -0.88364 -0.83179456 -1.5457804 -0.1540862 0.52089304 -1.0408047
-1.9154918 -1.3212612 -0.0068206065 0.76383185 0.45579103 0.09221583 0.07131635 -1.7411449
-0.8108186 -1.736887 -0.9413257 0.3829168 -0.8381111 -0.05060912 0.29677445 -0.9289433
-1.6624178 -1.0889508 -0.9864728 -1.2906306 -0.77803075 0.8447482 -0.8160967 -0.89345366
0.5178404 -0.8434343 -0.71063113 -0.8428405 -0.7988829 1.4600317 -1.5999801 -0.18210262
0.26209557 0.06402876 0.4649239 -0.9987546 -0.64151806 -1.0939229 2.0244682 -0.9716793
0.6369707 0.059128564 0.0067550736 -0.3129198 0.6269263 -0.87873167 -0.26482117 -0.5558668
-0.66737247 -0.89342093 -1.865922 -0.6478162 -1.0065364 1.2781627 -0.64544016 -0.40716228
0.92774785 -0.88206065 -0.96342 -1.2996984 -0.20973648 -1.0591844 0.46561682 -0.77038443
-0.1125895 -0.16328385 -0.06796221 0.21224059 -0.5328837 -0.03753362 -0.6469519 0.8338362
-0.51034516 -0.31286538 0.39022827 -1.0219519 -1.0484588 -0.9844752 -0.7836731 0.70791
1.1944711 -0.8596952 0.48667157 -0.49267635 -1.5428098 -0.65375966 -1.9611745 -1.2923855
0.1437259 -1.0891938 -1.8755935 -0.8708663 -0.9296158 -1.8532981 -0.2273597 -0.9074762
-1.021947 -0.7226101 -0.61696064 0.35524657 -0.8270827 -1.0331391 -0.77489877 0.3242301
-0.6018165 -0.6147653 -1.0311363 -0.942427 -0.78863454 -1.0027475 -0.9612335 0.46468547
-0.15230606 0.07230652 -1.4105355 -0.20244917 -1.9403273 -0.93910354 -0.112527795 -1.048317
-0.23310137 -0.94796467 -1.8350118 0.5723096 -0.04316793 -0.983629 -0.98303276 -0.018997721
-0.16410676 -0.11908366 -0.8879705 -0.5190264 -0.4435852 -1.0579114
00000000: 1013 6fbe e590 bfbd 7ad2 7dbf c1a0 edbf
00000010: ef3d 78bf cad8 ddbe 7ff3 3a3f 2a28 723f
00000020: 68e0 a5bf eba7 06bf 3b36 62bf 7df0 54bf
00000030: 22dc c5bf c6c8 1dbe 3f59 053f 1739 85bf
00000040: d62e f5bf 161f a9bf 657f dfbb 7c8a 433f
00000050: 715d e93e a7db bc3d 4e0e 923d d6dd debf
00000060: cf91 4fbf 5052 debf b9fa 70bf ac0d c43e
00000070: 738e 56bf 824b 4fbd d2f2 973e 3acf 6dbf
00000080: 1bca d4bf bd62 8bbf 7b89 7cbf 6233 a5bf
00000090: 062d 47bf 6b41 583f b7eb 50bf 61b9 64bf
000000a0: 3091 043f 4feb 57bf eceb 35bf 65c4 57bf
000000b0: 9783 4cbf 52e2 ba3f 26cc ccbf 1c79 3abe
000000c0: 6431 863e 8321 833d 810a ee3e 62ae 7fbf
000000d0: 873a 24bf aa05 8cbf e390 0140 f9bf 78bf
000000e0: 8310 233f cb30 723d aa59 dd3b 0637 a0be
000000f0: 3e7e 203f 8ff4 60bf a496 87be 494d 0ebf
00000100: ecd8 2abf 3cb7 64bf 88d6 eebf 48d7 25bf
00000110: 2fd6 80bf d69a a33f 913b 25bf 9377 d0be
00000120: e280 6d3f bace 61bf b1a2 76bf 845c a6bf
00000130: 29c5 56be 5b93 87bf 5465 ee3e ea37 45bf
00000140: 5395 e6bd e233 27be c52f 8bbd 9955 593e
00000150: 116b 08bf dabc 19bd a49e 25bf 4a76 553f
00000160: fba5 02bf e42f a0be 00cc c73e 52cf 82bf
00000170: e633 86bf 9106 7cbf cd9e 48bf 9739 353f
00000180: 6ee4 983f fc14 5cbf 042d f93e 1340 fcbe
00000190: cb7a c5bf cb5c 27bf c407 fbbf e36c a5bf
000001a0: e22c 133e b46a 8bbf 7313 f0bf 18f1 5ebf
000001b0: 4dfb 6dbf df38 edbf fbd0 68be 5c50 68bf
000001c0: 29cf 82bf fafc 38bf 22f1 1dbf e1e2 b53e
000001d0: b1bb 53bf e73d 84bf c45f 46bf 7d01 a63e
000001e0: a510 1abf 4261 1dbf 46fc 83bf e542 71bf
000001f0: f4e3 49bf 085a 80bf 6613 76bf 41eb ed3e
00000200: 1ff6 1bbe 7115 943d 6d8c b4bf d64e 4fbe
00000210: a55c f8bf 1769 70bf f974 e6bd 402f 86bf
00000220: 20b2 6ebe d0ad 72bf abe1 eabf e282 123f
00000230: dbd0 30bd 1ccf 7bbf 09a8 7bbf 1ca1 9bbc
00000240: 9a0b 28be 22e2 f3bd 0952 63bf eade 04bf
00000250: 991d e3be a469 87bf

fc3.weight f4 [1, 150]
-0.034697637 -0.000515034 -0.031214725 -0.093672134 -0.0020049138 -0.002225534 0.0368654 0.000761282
-0.0011402164 -0.03660575 -0.00037840885 -0.0006741501 -0.005628902 0.0043334984 0.035345286 -0.01191033
-0.15034114 -0.008259613 0.012690755 0.022956789 0.0042826575 0.0024977603 0.023582285 -0.08477503
0.037380755 -0.08242518 0.0075705126 0.016906666 -0.036511987 0.023067255 0.009601327 -0.0010496216
-0.10933608 -0.036495302 -0.0054298583 0.00088319776 -0.040279932 0.036361746 -0.015177247 -0.007868283
0.0014753339 0.0026773908 -0.020761821 0.00024208726 -0.01546101 0.05120794 -0.055068888 0.0059588724
-0.0017715024 0.001077968 0.0012608751 -0.010546269 -0.048771203 0.005801535 0.1504952 -0.022593634
-0.031607453 0.011992839 0.0024210527 -0.043773007 0.018630378 -0.00043180143 0.00016568443 -0.00067348295
0.0069968854 -0.03951129 -0.130043 0.021350315 0.00048649756 0.07489812 -0.00086239603 -0.0053796284
0.026067521 -0.024735797 0.004870956 -0.004522559 -0.001514481 0.0063259415 0.007639835 -0.0074886605
0.0034901295 -0.015415311 -0.018626377 0.063324414 -0.0017408007 -0.011233034 0.0010369584 0.01905441
-0.014582481 -0.0023261975 -0.0026701808 -0.010844081 0.001950115 -0.0047095204 -0.0074974825 0.034238935
0.0030792027 -0.0012042572 -0.0026403007 -0.024172205 -0.039110456 0.0042847 -0.16750722 -0.035880618
-0.0015063761 -0.05910956 -0.12034879 0.0027551437 -0.0003559742 -0.099576384 0.000669203 -0.019462997
-0.015216981 -0.003090859 -0.0033311327 0.0077707907 -0.016270397 -0.007220564 0.0034757573 -0.00284564
-0.032107234 0.004390084 -0.005011492 0.010721466 -0.07631284 -0.03499423 0.016991187 0.012123681
-0.014454916 0.01416229 -0.034883544 0.0062471726 -0.17237097 0.007786888 -0.0019429998 0.029030304
-0.002536431 0.020123076 -0.12319004 0.010036409 -0.003200507 -0.0007480788 -0.0036365164 0.021648856
0.029776884 0.0006974219 -0.0030936261 0.013974896 0.0027828512 -0.00074528763
00000000: 1c1f 0ebd 5903 07ba 06b6 ffbc 2dd7 bfbd
00000010: df64 03bb 44da 11bb 2c00 173d c590 473a
00000020: 5073 95ba e9ef 15bd 2d65 c6b9 73b9 30ba
00000030: a772 b8bb 0500 8e3b 38c6 103d 8b23 43bc
00000040: 07f3 19be 5453 07bc e2ec 4f3c e00f bc3c
00000050: 8955 8c3b 77b1 233b a32f c13c 889e adbd
00000060: 901c 193d 88ce a8bd 1012 f83b d97f 8a3c
00000070: 988d 15bd 8af7 bc3c e24e 1d3c 7593 89ba
00000080: 98eb dfbd 197c 15bd f4ec b1bb 6686 673a
00000090: 92fc 24bd 0ef0 143d fda9 78bc f9e9 00bc
000000a0: fe5f c13a 2a77 2f3b b214 aabc ced8 7d39
000000b0: 2d50 7dbc 6bbf 513d ea8f 61bd a542 c33b
000000c0: c231 e8ba 9b4a 8d3a f343 a53a 42ca 2cbc
000000d0: 50c4 47bd ce1a be3b 6a1b 1a3e 4916 b9bc
000000e0: d176 01bd 9d7d 443c 86aa 1e3b 534b 33bd
000000f0: bc9e 983c 6863 e2b9 93bb 2d39 ad8c 30ba
00000100: 2146 e53b 97d6 21bd fe29 05be dbe6 ae3c
00000110: 9910 ff39 2f64 993d 6b12 62ba 9847 b0bb
00000120: 8e8b d53c baa2 cabc 8a9c 9f3b f931 94bb
00000130: 8d81 c6ba d849 cf3b 9557 fa3b 7063 f5bb
00000140: a8ba 643b 8090 7cbc 5896 98bc 3bb0 813d
00000150: 942b e4ba c20a 38bc 8dea 873a fe17 9c3c
00000160: 5ceb 6ebc 1e73 18bb 33fe 2ebb 5fab 31bc
00000170: 009b ff3a 5252 9abb 71ad f5bb 203e 0c3d
00000180: 73cc 493b 2bd8 9dba e508 2dbb ca04 c6bc
00000190: 4932 20bd ab66 8c3b 0387 2bbe 8ef7 12bd
000001a0: 9871 c5ba de1c 72bd 6d79 f6bd a48f 343b
000001b0: 0ca2 bab9 b4ee cbbd 746d 2f3a dd70 9fbc
000001c0: a550 79bc 0290 4abb 224f 5abb 1ea2 fe3b
000001d0: 7f49 85bc 7b9a ecbb 88c9 633b eb7d 3abb
000001e0: e082 03bd b2da 8f3b 7137 a4bb 16a9 2f3c
000001f0: e849 9cbd 1c56 0fbd 1a31 8b3c 67a2 463c
00000200: 50d4 6cbc f308 683c 0ce2 0ebd 15b5 cc3b
00000210: 0482 30be 2729 ff3b 41ac feba f6d0 ed3c
00000220: 403a 26bb 26d9 a43c 0f4b fcbd c06f 243c
00000230: 99bf 51bb b81a 44ba 9f52 6ebb f158 b13c
00000240: a7ee f33c 31d3 363a 6fbe 4abb f6f6 643c
00000250: 7f60 363b 685f 43ba
