p2_continuous-control/checkpoint_actor_target.pth (torch_old, 23592 bytes, 4 tensors)

fc2.weight f4 [150, 33]
00000000: 7fa4 8abf eb5e a53f 7613 0bbf ee16 c5bf
00000010: c085 68bf 59ea 64bf a454 3b3d 6828 dd3b
00000020: 9302 50bf 535a 54bf 9af6 3dbe 86f7 bcbe
00000030: 1e41 123e 81f1 3abf 40f7 b2bd 54df 5abd
00000040: 89d5 c03d 3b24 99be 76f1 973d 89e0 853d
00000050: 3dd1 b9be f94c 47be 2afd 2fbf 5c20 503e
00000060: 5712 3c3e 89e6 373e 914c 183f 61d3 963f
00000070: 8080 e63e 483e 353c 19ea a7bf d003 4a3d
00000080: 2aef 9ebf 3b2a 1fbf 32d5 c53f f890 84be
00000090: bee5 37bf c5b9 30bf a3d8 913f cc98 c23d
000000a0: 11c1 eabc 6742 86bf c65d 41be d062 0b3e
000000b0: d84a e23e 1aec 0a3e 9bae f4be f1c2 63bf
000000c0: b8d5 8c3e 6477 eebe d385 cc3c e63a babe
000000d0: 5532 1f3c 6d53 9c3e 0926 8dbe 19eb b83e
000000e0: 5026 3abf a88d 5ebe a39f b0be 05d1 603e
000000f0: afeb e23f f4a0 c63e f0fb f7bb 3a20 d9bf
00000100: 58b8 833d 1181 1740 ae9c 4bbf ec36 a73e
00000110: 191d ad3f 494c 38be be48 6fbe 7441 ddbf
00000120: 2348 503e 474a c93c 63ba fa3d 5c68 e53c
00000130: e872 ea3d ea92 22be 44f4 66bc be46 46be
00000140: 45cf 283f 9dcf 78bf dbfa 94be 0fcf 423e
00000150: f83b 6b3f a6aa 05be 5a87 a3bc 2dc9 0fbf
00000160: 8873 1dbf af60 a2bd 6b2c 203d de63 583e
00000170: 54bf cebe d8b8 433f 1ef5 44be e4ea 843d
00000180: 000c 32bf e697 53bd a051 5f40 c2ec 83bf
00000190: 0776 d13e 8509 5fbd 8d8d 59bf 05ab 9ebd
000001a0: f075 1fc0 94b5 33bf 7e60 783d 1445 5d3f
000001b0: 2285 e2bd 25a6 64be ab6d b9be 7857 9f3e
000001c0: 03bf c93f dfb9 883f 591a 61be d5cc 39be
000001d0: b9fd b73e b823 4dbf ae0a 67be 73b4 3e3f
000001e0: 2815 6d3e 8f5d 3abf ccb3 8b3e 99aa a03c
000001f0: acb0 1a3e 3cf5 6abf 4bc9 1b3f aa16 f63d
00000200: 188c cbbc 72aa 20bf fc19 db3c a99b 453f
00000210: 4443 0240 e8a3 cb3d 30ba dbbe 3ac2 463e
00000220: 2f14 683f ffcd fb3f d5aa 34bf 25b5 f63e
00000230: 0520 34bc a0e5 0e3f df23 123d 8431 9cbc
00000240: dc40 a73e 66fe 12bf db49 6b3f fa5e 573e
00000250: ca6b 3dbf 173b 9e3e ecfe eabd b205 5f3e
00000260: 9a13 8bbd 59cc d23e 0a06 8b3a 8b78 abbe
00000270: 9d8e 593d e427 9a3e 8c6b b63e b55d 3e3f
00000280: 0215 763e 94e5 ab3c 18d0 3fbf 28df 473d
00000290: 17a7 7fc0 fe6b ff3f acac b33e 6247 183e
000002a0: 784b 90bd c54a 363f ad65 babe 07d4 433f
000002b0: caf3 8c3d 771f 90be ee52 38be 4824 a2bd
000002c0: 07da 0d3e 46d5 ddbd 3a56 bdbf c7fc b33e
000002d0: 46e5 61be a35b 0bbf 4433 823d 6959 3fbf
000002e0: 776c fa3d 0ac0 53bd 1201 79bd 67ed 2b3f
000002f0: 8603 f0be 3e4f c0bd 63ec 43be b222 5e3e
00000300: 9b67 553f b40b 123f 7c98 7f3c fc8c 43bf
00000310: e042 8abd 5901 6940 b0dd f53e 18ca e03f
00000320: 160f c23f 2b82 c0be 6bef 413f 09da 05bf
00000330: 50e9 bb3f 8923 0dbd 29c5 903e ef59 ffbe
00000340: 7810 c7bd dcc0 273f 2f86 b73e f59a 403f
00000350: 75c1 ba3f 9979 aa3e 2c06 1abe 31c7 913c
00000360: af87 9e3f 8b66 c33d fd32 093e 6bcf d33d
00000370: 0976 03be b0ea 413e 098b 653f 78d6 86bd
00000380: 024c f33c e40b d43e 5f01 69bd 8c18 af3c
00000390: fc54 d7be 0c3b 1e3d b4ee 60be 0570 433f
000003a0: 0884 773f 1178 f03f 6198 0dbf 2a2c a13d
000003b0: a37f 3e40 052a ed3f c4a1 1cbf 1778 89bd
000003c0: a588 2cbe 9163 45bd b84f 10bd c0e9 983d
000003d0: 57ca 29bd c3f1 63bf 5e2c 35bf f3de 4b3f
000003e0: 2bd1 8cbc de2e 243e 00cc cdbd d180 79be
000003f0: ffb6 873e 4ae8 343f d7ae 20bf 014d fcbd
-1.083145 1.2919592 -0.5432657 -1.5397623 -0.90829086 -0.89420086 0.045735016 0.0067492016
-0.8125393 -0.82950324 -0.18551102 -0.36907595 0.14282653 -0.73024756 -0.087385654 -0.05343564
0.094157286 -0.29910454 0.07419102 0.06536967 -0.3629245 -0.19462956 -0.6874567 0.20324844
0.18366371 0.17959036 0.5949183 1.1783258 0.45019913 0.011062212 -1.3118316 0.049320042
-1.2416737 -0.62173814 1.5455687 -0.25891852 -0.71834934 -0.6903346 1.1394237 0.095018
-0.028656514 -1.0489014 -0.18883428 0.13611913 0.44197726 0.13566628 -0.47789463 -0.8896933
0.27506804 -0.46575463 0.024966156 -0.3637306 0.00971659 0.305324 -0.2756808 0.36116865
-0.7271471 -0.21733725 -0.34496793 0.21954735 1.7728175 0.38794672 -0.007567875 -1.696296
0.06431645 2.3672526 -0.7953595 0.3265909 1.3524505 -0.1799785 -0.23367593 -1.72856
0.20340018 0.024571551 0.12242582 0.028003864 0.11447698 -0.15876356 -0.014096323 -0.19362924
0.6594127 -0.9719179 -0.29097638 0.19024299 0.9188838 -0.13053378 -0.019962002 -0.56166345
-0.6150441 -0.07928597 0.03910486 0.21131846 -0.40380347 0.76453924 -0.1923413 0.06490114
-0.6954956 -0.051658534 3.489357 -1.0306628 0.4091036 -0.054452438 -0.84981614 -0.07747463
-2.4915733 -0.7019894 0.060638897 0.8643353 -0.11060549 -0.22329004 -0.36216483 0.3112142
1.5761417 1.0681723 -0.21982707 -0.18144543 0.35935763 -0.8013263 -0.22562668 0.74494094
0.23152602 -0.7279901 0.27285612 0.019612597 0.15106457 -0.9178045 0.60854024 0.120160416
-0.024847075 -0.6276008 0.026745789 0.77190644 2.0353556 0.09943372 -0.42915487 0.19410029
0.906558 1.967224 -0.7057317 0.48185077 -0.010993962 0.5581913 0.03567874 -0.01906658
0.3266667 -0.5741943 0.9190957 0.21032324 -0.739926 0.30904457 -0.11474404 0.21779516
-0.06790848 0.4117153 0.0010606658 -0.33490404 0.053114522 0.3010856 0.35628927 0.74361736
0.24031451 0.020983495 -0.749269 0.048796803 -3.9945734 1.9954832 0.35092676 0.1487098
-0.070456445 0.7120784 -0.36405697 0.76495403 0.068824366 -0.28149006 -0.18000385 -0.07917076
0.13852702 -0.10831694 -1.4791939 0.3515379 -0.22060117 -0.544367 0.063574344 -0.74745804
0.12227719 -0.051696815 -0.060792036 0.6715912 -0.46877688 -0.09390114 -0.19133143 0.21692923
0.83361214 0.5704911 0.01560032 -0.76387 -0.06751037 3.6407073 0.48020697 1.7561674
1.5160854 -0.3759931 0.7575595 -0.5228582 1.4680576 -0.034457717 0.2827542 -0.498733
-0.09719938 0.65528655 0.3584456 0.75236446 1.4590288 0.33295897 -0.15041417 0.017795177
1.2385157 0.09541043 0.13398357 0.10342296 -0.12837996 0.18937182 0.89665276 -0.065838754
0.02969933 0.41415322 -0.056886073 0.02137401 -0.42057025 0.03863053 -0.21966058 0.76342803
0.9668584 1.8786641 -0.55310637 0.07869752 2.9765403 1.8528448 -0.61184335 -0.067123584
-0.16849001 -0.048190657 -0.035232276 0.07466459 -0.041452732 -0.89040774 -0.70770824 0.7963707
-0.017189583 0.16033503 -0.100486755 -0.24365546 0.26506802 0.70666945 -0.62766784 -0.12319375

fc2.bias f4 [150]
00000000: 7cdf 96bf 8292 f2bf 6dca 4fbf acb7 20bf
00000010: 974b 26bf c756 61bf 2c63 0ebf eba8 3cbf
00000020: 7c77 76bf 03aa 3cbf bbf9 73bf 4387 a7bf
00000030: 586b fdbb a842 9dbf e68d 68bf c4fd 23be
00000040: e229 d1be fe74 9abf bd06 debe 6a20 71bf
00000050: f667 9ebf 5fa7 d4bf 5555 61bf 6331 23bf
00000060: 0f72 48ba 2160 7abf 5fde 70bf 458e 33bf
00000070: d7ec 61bf bc3e 0ebf 5452 76bf c04c 8fbf
00000080: c632 0fbe 8e25 80bf 0327 8ebf 0b3b 8ebf
00000090: c1fb 79bf 2c61 99bf 8bc6 8bbf 3ff5 51bf
000000a0: 2901 3bbf fa86 86bf 6e5e 30bf 2a4c b6bf
000000b0: bedb adbf a24b 5bbf 4d7f afbf 6845 8ebf
000000c0: 6974 5bbf 3676 92be 0fb7 3fbf 194c 64bf
000000d0: e559 7ebf 4db1 b1bf b86a b5bf 470f 8cbf
000000e0: fc95 40bf 0864 4ebf bfde 52bf 3ec6 dbbf
000000f0: 80f8 49bf c970 95bf 1d03 b5be a161 7abf
00000100: eb7c 94bf 2e8b 96bf 0601 5dbf 417c 5bbf
00000110: aef1 d6bd f586 92bf 622c 65bf 9074 2dbf
00000120: 8b6d 2fbe 9ad8 92bf ee81 17bf 4230 96bf
00000130: a190 92bf 22c5 61bf 39fb b7bf 1a01 26bf
00000140: 9b33 36bf b205 32bf b988 a9be ffee a4bf
00000150: 92e1 b6be 93a9 5ebf 4da2 a2bf 6a8b 9dbe
00000160: 5d70 bcbf 3764 84bf 6b67 46be 269f 67bf
00000170: 498e 86bf ce1d 81bf 9893 92bf e372 b5bf
00000180: fc47 45bf db25 33bf f95e 79be ebb1 2bbf
00000190: 3b65 ebbe 8131 acbf c53f 89bf c0d9 93bf
000001a0: 8245 7cbf 8a3c 4bbf b7e5 c2bf b981 58bd
000001b0: 6551 5ebf 9e5c d5bf 11b9 bebf c4f5 51be
000001c0: bdd2 84bf b41f 7fbf 2d84 a2bf 8d24 4fbf
000001d0: 1846 39bf 11f7 8bbf daf1 95bf 5602 b3bf
000001e0: 1132 55bf 872a 41bf edce 13bf 4f1b 90bf
000001f0: 03c0 29bf 9966 a3bf 82af 2abf c3c3 81be
00000200: 90c8 9ebf 0243 01bd c572 a1bf b498 1dbf
00000210: a410 95bf 8053 1cbf 648f 67bf 0936 a4bf
00000220: d554 82bf e5de 6dbf b154 9abf 333d 7abf
00000230: be68 8fbf 2c57 0abf 36f8 4dbf 9437 89bf
00000240: 87bd 69bf cb59 463b 05a0 9ebe 5347 f5be
00000250: c581 8dbf bf60 e0be
-1.1786952 -1.8950961 -0.8116825 -0.6278026 -0.6495909 -0.88023037 -0.55620074 -0.7369525
-0.9627607 -0.7369692 -0.95302933 -1.3088154 -0.0077337436 -1.2285967 -0.9084152 -0.16014773
-0.40852267 -1.2066953 -0.43364516 -0.94190085 -1.2375476 -1.6613578 -0.8802083 -0.63747233
-0.00076463906 -0.9780293 -0.9408931 -0.7013896 -0.88252014 -0.55564475 -0.9621937 -1.1195297
-0.13984212 -1.0011461 -1.1105655 -1.1111768 -0.9764977 -1.198278 -1.0919966 -0.8201484
-0.73048645 -1.0509942 -0.6889409 -1.4241993 -1.3582685 -0.8566228 -1.3710724 -1.1114931
-0.857245 -0.28605813 -0.748887 -0.89178616 -0.9935592 -1.3882233 -1.4173193 -1.0942162
-0.7522886 -0.80621386 -0.82371134 -1.7169874 -0.78894806 -1.1675044 -0.35353938 -0.9780522
-1.1600622 -1.1761224 -0.86329687 -0.8573647 -0.104953155 -1.1447436 -0.8952085 -0.67755985
-0.17131631 -1.1472352 -0.5918263 -1.1733477 -1.1450387 -0.88191426 -1.4373542 -0.6484543
-0.71172494 -0.6953994 -0.33112124 -1.2885436 -0.35718971 -0.869775 -1.270578 -0.30770427
-1.472179 -1.0343083 -0.19375388 -0.90477216 -1.0512172 -1.0087221 -1.1451292 -1.4175686
-0.77062964 -0.6997964 -0.24352635 -0.67068356 -0.4597567 -1.3452607 -1.0722586 -1.1550827
-0.9854356 -0.7938925 -1.5226353 -0.05285809 -0.8684295 -1.666889 -1.4900228 -0.20503908
-1.0376812 -0.9965775 -1.2696587 -0.8091515 -0.7237258 -1.0934774 -1.1714432 -1.3985088
-0.8327952 -0.75455517 -0.5773762 -1.1258334 -0.6630861 -1.2765685 -0.66674054 -0.25344667
-1.2404957 -0.031558044 -1.261315 -0.6156113 -1.1645703 -0.6106491 -0.9045317 -1.282899
-1.0182139 -0.92918235 -1.2057096 -0.9774963 -1.120384 -0.54039264 -0.80456865 -1.0720086
-0.9130482 0.0030265923 -0.3098146 -0.4790598 -1.1055228 -0.4382381

fc3.weight f4 [4, 150]
00000000: 6e9e 983e 4739 56bf 5ba0 91bf f512 c1be
00000010: 88ac 1fbf e9f1 7e3f 2806 1540 1574 413e
00000020: 9214 98bf a0fe 28c0 74da 6dbf 5755 82bf
00000030: d044 623f 0990 233f 03be a9be 1392 7abf
00000040: 2432 f3bf 5de9 a6bf d38b 0c3f da11 a5bf
00000050: 7172 0bbe e52a 063e 9267 66bf 476e b33f
00000060: f8fd a3bf b24d 8ebf 4dad 3fc0 352e a93e
00000070: a811 9d3f f0bf be3d 393d 97bf 1577 abbf
00000080: 0a12 4dbf d13c c33f 3cc4 da3f 6789 f63f
00000090: 4992 1f3f d719 2e3f e612 c9bf 48da c63f
000000a0: a268 6bbf 8807 ecbf 4523 81be 01e8 4540
000000b0: a3c1 cb3e 936f 853f 593c 1040 cbe0 813f
000000c0: 71c5 b6bd f414 98bf a99a cd3f b3ef a13f
000000d0: eadd 7240 9b68 c63e 8ac7 adbc bf2a e9bf
000000e0: 2ba1 0cc0 0cc6 33bf 23bb b03e cbbb 0ebf
000000f0: 853d e5bd fdb4 c23f aec4 9ebe 3c6b b53d
00000100: 0a9b ddbd 783f d33f eab3 57be 15fd 0d3f
00000110: d8db 903d 5188 f43f 4009 9abf c55e febc
00000120: 5912 ef3f c303 28bf 5df7 8abf 21d9 0c3d
00000130: fd97 1cbf e95d b63f 8ae9 c8bf 61e5 ebbf
00000140: ad49 39be 48e6 e73f 38a2 a4bf 628e 9bbf
00000150: d31e b63e 7c6b c33f a612 1d40 c6dd 53bf
00000160: 2e9f ab3f c97f b2bf bb6d 803f a498 00c0
00000170: f815 0e40 bd5e f93f 48b0 d6bf 9d68 4fbf
00000180: 03dd a83f 4076 2c40 0624 223d e59e 21c0
00000190: 5ca2 abbf 1ee3 a13f a410 c73e 9ab6 e4bf
000001a0: 5ddc c0bf 7b75 b1bf a453 bcbf 9aed e63e
000001b0: 5ab8 f93f 760d 0f40 2228 50bf 9de3 ac3e
000001c0: 055b 443d e7a6 3940 aff7 ce3f 7728 09c0
000001d0: f35a 873f b55c 223f 0565 bf3f be1a 0b3f
000001e0: 2d13 c3bd ddc8 ee3e 9eae 6fbe 4da0 613e
000001f0: ef3b 1340 8af5 c0be 7e0e 103f 4e32 c8bf
00000200: f7f7 1ec0 5902 f63f 450a 97be f245 a33f
00000210: 4334 0140 fd77 9bbf c854 96be 27d4 993c
00000220: 1ada aebf 7824 933f d9ea a03e 341d b03f
00000230: 4a68 0540 db29 c93d 8b91 793f b2c5 e9be
00000240: b307 bc3f 4253 e8be 353a 28bf 7e3d f13d
00000250: d9e0 0540 a4c7 6b3e e31a 983f 5fc9 d23f
00000260: 7b13 dd3b 38e3 6bbf 8326 47bf 8d2e d83f
00000270: 3cf3 5ebf f56e 13bf 6398 313e 112c b13e
00000280: 5962 1dc0 c40a ca3f 6fec d53f 5919 e03f
00000290: 6e9b ecbf ce19 0c3f 3ca3 853f 66b1 bfbe
000002a0: ac1e 8a3f f6a1 903f 448e 92be a6f3 843e
000002b0: 1d3f 843f e8a9 c3be 186f 843f 3742 4040
000002c0: 28b2 8ebf 0d58 e73c c885 723f f92b b0bf
000002d0: b955 4c3e 0a10 f3bd d4e9 323c 610a cbbe
000002e0: d3f9 c23c eb5c 3340 5ec0 e9bb f22e 06c0
000002f0: 21ab 943f 7862 6abf d3f7 e03e c0b7 60c0
00000300: 4ede 7abf 3a0c 0d40 1003 c0bf 5543 073f
00000310: c3ff 4940 a973 1b40 ff22 23c0 d17e 90bf
00000320: 3ed0 f9bd 3bf4 863f f3ef 41be 44f6 3340
00000330: 4821 2040 cb41 fabf b4ea 8d3d 4d09 94bf
00000340: 2daf cf3f 82b7 f2bf e0d2 36bf 1410 da3f
00000350: bd0e 2e40 baeb 85bf d0bd 0e40 722a 89bf
00000360: 66b4 dcbf 94d7 01c0 ef4b 48c0 c80b 51be
00000370: ffab c2bf b15b f53f f2db 2c3e 9f09 4cc0
00000380: 0c16 5c3f ab90 2a40 fc77 833e 9853 aabf
00000390: b7a0 91bf 54b2 93bf deaf a4bf 46dc 01c0
000003a0: c735 303f 7717 b53e 2289 6ebe 2a20 28bf
000003b0: c8c8 8fbf 2b2a 9fbf 7d09 e13f 871e 023f
000003c0: aa19 05bf 5643 b63f 64bc 663d d0bb 743f
000003d0: cc4a 1e3f a4b9 9e3d 87d5 073f 2cf6 963e
000003e0: 073c 2fbe 1605 873f fe38 9cbe 6920 d2bf
000003f0: df49 ec3f b883 8bbf 6802 1ac0 d9c9 1bbf
0.29808372 -0.8368115 -1.1377062 -0.37709776 -0.62372637 0.99587876 2.3285007 0.18891938
-1.1881278 -2.640541 -0.9291146 -1.0182294 0.8838625 0.63891655 -0.3315278 -0.9787914
-1.8999677 -1.3039967 0.54900855 -1.2896073 -0.13617875 0.131023 -0.90001786 1.4018029
-1.281188 -1.1117461 -2.9949524 0.33043066 1.2271013 0.09313953 -1.1815559 -1.3395716
-0.8010565 1.5252935 1.7091136 1.9260682 0.6233259 0.6800818 -1.5708892 1.5535364
-0.9195653 -1.8439798 -0.2522222 3.0922854 0.3979617 1.0424675 2.2536833 1.0146726
-0.08924378 -1.1881394 1.6062824 1.2651275 3.7947946 0.38751683 -0.021213312 -1.821617
-2.197337 -0.7022407 0.34517774 -0.557553 -0.111933745 1.5211483 -0.3100943 0.08858344
-0.10820587 1.6503744 -0.21064726 0.554643 0.07073182 1.91041 -1.2034073 -0.031051049
1.8677474 -0.6563074 -1.0856739 0.034386758 -0.61169416 1.4247409 -1.569627 -1.8429376
-0.18094511 1.8117151 -1.2862005 -1.2152827 0.35570392 1.5267177 2.4542632 -0.82760274
1.3407953 -1.3945247 1.0033487 -2.0093164 2.2200909 1.9482037 -1.6772547 -0.81019
1.3192447 2.6947174 0.039585136 -2.5253232 -1.3408923 1.2647436 0.38879883 -1.7868226
-1.506725 -1.3863977 -1.4713025 0.4510315 1.9509385 2.2351966 -0.8131124 0.33767405
0.047938365 2.900812 1.6169337 -2.1430948 1.057463 0.6342271 1.4952704 0.5433768
-0.09525142 0.46637622 -0.23406455 0.22033806 2.300533 -0.3768733 0.56272113 -1.5640352
-2.4838846 1.9219466 -0.29500023 1.2755721 2.0188148 -1.2145993 -0.29361558 0.01877792
-1.3660309 1.1495504 0.31429175 1.3758912 2.0844903 0.098224364 0.97487706 -0.45658642
1.468985 -0.4537602 -0.65713817 0.11779307 2.0918486 0.23025376 1.1883205 1.6467704
0.006746707 -0.92143583 -0.7779314 1.6889206 -0.87089896 -0.5759118 0.17343287 0.34603932
-2.4591277 1.5784535 1.6712779 1.7507735 -1.8484933 0.54726875 1.044044 -0.37440032
1.079061 1.1299427 -0.28624165 0.2596714 1.0331761 -0.38215566 1.0346403 3.0040414
-1.1148119 0.028240228 0.94735384 -1.3763419 0.19954576 -0.118682936 0.010920007 -0.39656356
0.023800766 2.8025463 -0.0071335277 -2.0966153 1.1614724 -0.915565 0.43939075 -3.5112152
-0.9799546 2.2038713 -1.5000935 0.52837116 3.1562355 2.4289343 -2.549011 -1.1288701
-0.12197922 1.0543283 -0.1893919 2.8119059 2.5020313 -1.9551328 0.06929532 -1.1565338
1.6225334 -1.8962252 -0.7141552 1.7036157 2.7196496 -1.0462563 2.2303352 -1.0716078
-1.7242553 -2.0287828 -3.1296346 -0.2041465 -1.5208739 1.9168607 0.16880777 -3.1880872
0.8597114 2.6650798 0.25677478 -1.3306761 -1.1377171 -1.1538796 -1.286617 -2.0290694
0.6883206 0.35369465 -0.232945 -0.6567408 -1.1233149 -1.2434744 1.758102 0.5082783
-0.51992285 1.4239299 0.056332007 0.9559908 0.6183288 0.07750252 0.5306019 0.2948469
-0.17112742 1.0548427 -0.30512232 -1.6416141 1.8460044 -1.0899572 -2.4063969 -0.6085487

fc3.bias f4 [4]
00000000: ef6e e7be baf3 c7bd af2f 383e 301b b63d
-0.45201823 -0.09763284 0.1798694 0.08891904
