p2_continuous-control/checkpoint_actor.pth (torch_old, 23592 bytes, 4 tensors)

fc2.weight f4 [150, 33]
0	0xbf8e8c9f	-1.1136664
1	0x3fa13c29	1.2596484
2	0xbefcd28f	-0.49379393
3	0xbfc17630	-1.5114193
4	0xbf6fbebc	-0.9365041
5	0xbf612b13	-0.8795635
6	0x3dc08caf	0.09401833
7	0xbd00afcf	-0.031417664
8	0xbf5d362d	-0.8641079
9	0xbf5b5863	-0.8568174
10	0xbe57756f	-0.21040891
11	0xbeaf8f01	-0.3428879
12	0x3e352ae8	0.17692149
13	0xbf3afba6	-0.73040235
14	0xbdf4b32a	-0.11948235
15	0xbcdbb4dc	-0.026819639
16	0x3df46fb6	0.1193537
17	0xbe829d85	-0.25510803
18	0x3df7b104	0.1209431
19	0x3d0a70f6	0.033799134
20	0xbeaa2290	-0.33229494
21	0xbe6f0dbb	-0.23345082
22	0xbf2a218a	-0.66457427
23	0x3e6c2388	0.23060429
24	0x3e5a1bc3	0.21299653
25	0x3e2a9531	0.16658475
26	0x3f1eb956	0.6200155
27	0x3f9365a4	1.1515393
28	0x3ef98453	0.48733768
29	0x3c353e48	0.011062212
30	0xbfa47c4c	-1.2850432
31	0x3d4a03d0	0.049320042
32	0xbfa04852	-1.252207
33	0xbf1e2041	-0.61767966
34	0x3fc63d69	1.5487491
35	0xbe80b204	-0.25135815
36	0xbf388b89	-0.72087914
37	0xbf2fabe7	-0.6862168
38	0x3f9213bf	1.1412276
39	0x3dce926f	0.10086524
40	0xbd224e83	-0.039625656
41	0xbf83cac8	-1.0296259
42	0xbe34568c	-0.1761114
43	0x3e1ec11e	0.15503356
44	0x3ee41d1b	0.44553456
45	0x3e1ed998	0.15512693
46	0xbef23163	-0.47303304
47	0xbf635be6	-0.888121
48	0x3e90a650	0.28251886
49	0xbef15de9	-0.4714196
50	0x3d0749e2	0.033029445
51	0xbeb81bfa	-0.35958844
52	0x3c11688b	0.008875023
53	0x3e9af83b	0.3026751
54	0xbe8dbc4d	-0.27682725
55	0x3ebfa1ba	0.37428075
56	0xbf3bc515	-0.733476
57	0xbe5a13f1	-0.2129667
58	0xbeb33534	-0.35001528
59	0x3e62b8c2	0.22140792
60	0x3fe33694	1.7751031
61	0x3eccec19	0.40023878
62	0xbbf7fbf0	-0.007567875
63	0xbfd96b26	-1.6985824
64	0x3d83b858	0.06431645
65	0x4016c13a	2.3555436
66	0xbf4359f9	-0.7630916
67	0x3eac7f50	0.33690882
68	0x3fad7c4d	1.3553559
69	0xbe4291f8	-0.19000995
70	0xbe4f4a3e	-0.20243165
71	0xbfd85978	-1.6902304
72	0x3e54889b	0.20755236
73	0xbc363d7d	-0.011123058
74	0x3e158d9b	0.146048
75	0x3c508a2f	0.012728258
76	0x3dcd9fe1	0.1004026
77	0xbe1ebd23	-0.15501837
78	0x3c99084e	0.018680718
79	0xbe267349	-0.16254915
80	0x3f2cda2a	0.6752039
81	0xbf74f2ed	-0.95683175
82	0xbea53b75	-0.32271925
83	0x3e687a22	0.2270284
84	0x3f713948	0.9422803
85	0xbe0336ed	-0.12813921
86	0xbcea7edf	-0.02862495
87	0xbf05d32d	-0.52275354
88	0xbf160fd3	-0.58617896
89	0xbe051ae7	-0.12998544
90	0x3cbead64	0.023276038
91	0x3e784c0b	0.24247758
92	0xbec4bbf0	-0.38424635
93	0x3f464b20	0.7745838
94	0xbe342997	-0.1759399
95	0x3d84eae4	0.06490114
96	0xbf349e54	-0.7055409
97	0xbd5397e6	-0.051658534
98	0x40632742	3.549271
99	0xbf865ff0	-1.0498028
100	0x3ed85232	0.4225021
101	0xbd7e90bf	-0.06214976
102	0xbf5d6e7e	-0.8649672
103	0xbdc586a9	-0.09644825
104	0xc01fa577	-2.4944742
105	0xbf34d4d2	-0.7063724
106	0x3d87ceac	0.066312164
107	0x3f5c9d7b	0.86177796
108	0xbdefe1b8	-0.11712974
109	0xbe6b3503	-0.22969441
110	0xbeba76ea	-0.3641885
111	0x3e99f48a	0.3006938
112	0x3fc7ae63	1.5600094
113	0x3f89e60c	1.077333
114	0xbe6f4243	-0.2336512
115	0xbe293b84	-0.1652661
116	0x3ebc5dde	0.36790365
117	0xbf4ee321	-0.8081532
118	0xbe54d0e8	-0.20782816
119	0x3f3a0b3a	0.7267338
120	0x3e549816	0.20761141
121	0xbf3941c4	-0.72365975
122	0x3e8e09cf	0.27741858
123	0x3c7dd583	0.0154928
124	0x3e0afd29	0.13573135
125	0xbf6f7dec	-0.93551517
126	0x3f1fc352	0.6240741
127	0x3dded5d2	0.10880627
128	0xbccb8b6c	-0.024846755
129	0xbf24a476	-0.6431345
130	0x3cdb19fc	0.026745789
131	0x3f4ab6b6	0.79185045
132	0x40037a34	2.0543337
133	0x3dd5b6ef	0.104352824
134	0xbee5dc1c	-0.44894493
135	0x3e47f0d5	0.19525464
136	0x3f6cefcb	0.92553395
137	0x3ffd80f0	1.9804974
138	0xbf3a8ce1	-0.72871214
139	0x3f02b091	0.5105067
140	0x3b89ff7d	0.004211365
141	0x3f185b24	0.5951407
142	0x3da7fd6f	0.082026355
143	0x3ac67e9c	0.0015143934
144	0x3e9e801b	0.30957112
145	0xbf0f9fdb	-0.56103295
146	0x3f70d17c	0.9406965
147	0x3e5a80be	0.21338174
148	0xbf438f15	-0.763902
149	0x3e8f8f40	0.2803898
150	0xbe0ce7c4	-0.13760287
151	0x3e552e03	0.20818333
152	0xbd34bdf2	-0.04412646
153	0x3ee04448	0.43802094
154	0x3cc13066	0.023582648
155	0xbea3c473	-0.31985816
156	0x3d35b8d9	0.044365738
157	0x3e8b0db7	0.271589
158	0x3eba3e74	0.36375773
159	0x3f3d9380	0.7405319
160	0x3e7ea8b6	0.24869046
161	0x3cabe594	0.020983495
162	0xbf3f05f0	-0.74618435
163	0x3d47df28	0.048796803
164	0xc07ccac4	-3.9498758
165	0x3ffe47a6	1.9865615
166	0x3ea9888c	0.3311199
167	0x3e5ff4b2	0.21870688
168	0xbd4342a6	-0.047670983
169	0x3f3398e3	0.7015516
170	0xbeaede16	-0.34153813
171	0x3f53bbab	0.82708234
172	0x3da22577	0.07917302
173	0xbea66210	-0.3249669
174	0xbe4df43a	-0.20112696
175	0xbdd878e0	-0.1056993
176	0x3e1e286f	0.15445112
177	0xbdf8c201	-0.12146378
178	0xbfbfd7a6	-1.4987686
179	0x3ea5cceb	0.32382903
180	0xbe1c2dfb	-0.15251915
181	0xbf1bcd67	-0.60860294
182	0x3d238922	0.039925702
183	0xbf4cece8	-0.8004899
184	0x3d830142	0.06396724
185	0xbd3ca9bc	-0.04606031
186	0xbdb73139	-0.08944935
187	0x3f352ff6	0.7077631
188	0xbf0d980a	-0.5531012
189	0xbde8f854	-0.1137549
190	0xbe5cc2f4	-0.21558744
191	0x3e515bff	0.2044525
192	0x3f4f6de3	0.8102705
193	0x3f2014b0	0.62531567
194	0x3c7f97d8	0.015600167
195	0xbf3d934d	-0.7405289
196	0xbd8a42e0	-0.06751037
197	0x4060b8bd	3.5112755
198	0x3ef82844	0.4846822
199	0x3fe23713	1.7673057
200	0x3fc28206	1.519593
201	0xbec31db7	-0.38108608
202	0x3f42f35a	0.76152575
203	0xbf0cf9e3	-0.55068797
204	0x3fbd4842	1.4787676
205	0xbd36da11	-0.044641558
206	0x3e8dd9a3	0.27705106
207	0xbf01e420	-0.50738716
208	0xbdda0b2d	-0.10646663
209	0x3f278359	0.65434796
210	0x3ebc918e	0.368298
211	0x3f410ef1	0.75413424
212	0x3fbd44fa	1.4786675
213	0x3eae1de7	0.3400719
214	0xbe118c43	-0.14213662
215	0x3cd35682	0.025798086
216	0x3f9c2e98	1.2201719
217	0x3ddbe5f3	0.10737219
218	0x3dd30957	0.10304516
219	0x3db93ede	0.09045194
220	0xbe069b46	-0.1314517
221	0x3e438310	0.19092965
222	0x3f5d6138	0.8647647
223	0xbd87077b	-0.06593224
224	0x3cdd7c5d	0.02703684
225	0x3ed5d0ad	0.4176077
226	0xbd2e831f	-0.042605516
227	0x3caf188c	0.02137401
228	0xbed919d5	-0.4240252
229	0x3d1e3b0c	0.03863053
230	0xbe68385e	-0.22677752
231	0x3f3d3c82	0.7392045
232	0x3f751109	0.9572912
233	0x3fef26d8	1.8683729
234	0xbf0bd1ea	-0.5461718
235	0x3d594648	0.05304554
236	0x403ea1cc	2.9786253
237	0x3febd9aa	1.8425801
238	0xbf168862	-0.58801854
239	0xbd1831f1	-0.037157003
240	0xbe3bc437	-0.18336569
241	0xbd769c39	-0.06020758
242	0xbd384551	-0.04498798
243	0x3d371356	0.044696175
244	0xbd71d34a	-0.05903939
245	0xbf63ebaf	-0.890315
246	0xbf38aa81	-0.7213517
247	0x3f4578d1	0.77137476
248	0xbcdb3993	-0.026760852
249	0x3e262056	0.16223273
250	0xbde0c95a	-0.10975905
251	0xbe848106	-0.25879687
252	0x3e9cee0d	0.30650368
253	0x3f34ce27	0.70627064
254	0xbf24bbe1	-0.6434918
255	0xbddd10c5	-0.10794214

fc2.bias f4 [150]
0	0xbf9371bc	-1.1519084
1	0xbff2dd6d	-1.8973824
2	0xbf525cae	-0.8217267
3	0xbf24b1b7	-0.6433367
4	0xbf258167	-0.6465058
5	0xbf5b5d05	-0.8568881
6	0xbf0f4569	-0.55965286
7	0xbf3b1a93	-0.73087424
8	0xbf77ccba	-0.9679676
9	0xbf357d9d	-0.70894796
10	0xbf74a0f4	-0.95558095
11	0xbfa54443	-1.2911457
12	0x3c1959ec	0.009359818
13	0xbf91beee	-1.1386392
14	0xbf6b2283	-0.91849536
15	0xbe0cb4c7	-0.13740836
16	0xbee2beac	-0.44286096
17	0xbf93d000	-1.1547852
18	0xbed3ad23	-0.4134303
19	0xbf70a34f	-0.9399919
20	0xbf9d771c	-1.2301974
21	0xbfd798bb	-1.6843485
22	0xbf5646ad	-0.8370159
23	0xbf20c7eb	-0.6280505
24	0x3c482157	0.01221498
25	0xbf790f80	-0.97289276
26	0xbf7a3897	-0.977426
27	0xbf36bb51	-0.7137957
28	0xbf62a485	-0.88532287
29	0xbf140572	-0.5782081
30	0xbf737ba9	-0.95110565
31	0xbf8dcf50	-1.1078892
32	0xbe1c4dbe	-0.15264031
33	0xbf7a1ff7	-0.97705024
34	0xbf8dc72a	-1.1076405
35	0xbf8477ea	-1.0349095
36	0xbf78f841	-0.97253805
37	0xbf9d7cc6	-1.2303703
38	0xbf8ce4b1	-1.1007291
39	0xbf51f924	-0.82020783
40	0xbf39a51e	-0.72517574
41	0xbf83b6a1	-1.0290109
42	0xbf34aa57	-0.7057242
43	0xbfb6be8f	-1.4276904
44	0xbfae7c3e	-1.3631666
45	0xbf5af780	-0.85533905
46	0xbfa8fda0	-1.32024
47	0xbf8e0c76	-1.1097553
48	0xbf6ca2d3	-0.9243595
49	0xbe9771ba	-0.29578954
50	0xbf3cbab5	-0.7372239
51	0xbf644364	-0.8916533
52	0xbf80bbe7	-1.0057343
53	0xbfb073cf	-1.3785342
54	0xbfad5e3e	-1.3544385
55	0xbf8e1b37	-1.1102055
56	0xbf3d9acc	-0.74064326
57	0xbf3e227b	-0.74271363
58	0xbf589673	-0.8460457
59	0xbfdb30c1	-1.7124254
60	0xbf4e57e4	-0.8060286
61	0xbf9c0eab	-1.2191976
62	0xbe9e05ca	-0.30863792
63	0xbf7e11ac	-0.99245715
64	0xbf8c92c6	-1.0982292
65	0xbf9a6578	-1.2062216
66	0xbf5e99a7	-0.86953205
67	0xbf50d92f	-0.81581396
68	0xbe0bdd99	-0.13658752
69	0xbf94446f	-1.1583384
70	0xbf6685f1	-0.9004813
71	0xbf2d0a57	-0.675939
72	0xbe226c57	-0.15861641
73	0xbf8f42b6	-1.1192234
74	0xbf0d5002	-0.5520021
75	0xbf996da9	-1.1986591
76	0xbf902c5c	-1.1263537
77	0xbf5f76de	-0.8729075
78	0xbfb8c41e	-1.443485
79	0xbf20cc34	-0.6281159
80	0xbf2d2590	-0.6763544
81	0xbf3461ef	-0.70461935
82	0xbea7bd17	-0.32761452
83	0xbfa59ff5	-1.293944
84	0xbea78fbd	-0.3272685
85	0xbf5d8f5f	-0.8654689
86	0xbfa74701	-1.3068544
87	0xbeb1a839	-0.34698656
88	0xbfbc1e81	-1.4696809
89	0xbf892287	-1.0713662
90	0xbe70e7bc	-0.235259
91	0xbf5b7415	-0.85724
92	0xbf891b6a	-1.0711491
93	0xbf7ceed1	-0.98801905
94	0xbf90e1fe	-1.1318967
95	0xbfb80f8d	-1.4379746
96	0xbf4b671c	-0.7945421
97	0xbf35570c	-0.7083595
98	0xbe720190	-0.23633409
99	0xbf1ce817	-0.6129164
100	0xbee84243	-0.45363054
101	0xbfad1470	-1.3521862
102	0xbf89ebf3	-1.0775131
103	0xbf927eda	-1.1444962
104	0xbf7e1e20	-0.9926472
105	0xbf2baf69	-0.6706453
106	0xbfbd445e	-1.4786489
107	0xbc98198c	-0.01856687
108	0xbf6134b2	-0.8797103
109	0xbfd34828	-1.6506395
110	0xbfbf690c	-1.4953933
111	0xbe342795	-0.17593224
112	0xbf848638	-1.035346
113	0xbf852661	-1.0402337
114	0xbfa34c70	-1.2757702
115	0xbf4ba640	-0.7955055
116	0xbf3eb8d8	-0.745008
117	0xbf8c4bb5	-1.0960604
118	0xbf95a634	-1.1691346
119	0xbfb9d94b	-1.4519438
120	0xbf45700e	-0.77124107
121	0xbf327dd4	-0.6972325
122	0xbf1a46d5	-0.6026433
123	0xbf90927e	-1.1294706
124	0xbf2ce3e1	-0.67535216
125	0xbfa6a896	-1.3020198
126	0xbf24dff1	-0.6440421
127	0xbe9f3a12	-0.31098992
128	0xbf9f4fca	-1.2446225
129	0xbd365044	-0.04451014
130	0xbfa252d9	-1.2681533
131	0xbf168a9e	-0.58805263
132	0xbf96d8c4	-1.1784902
133	0xbf1cd847	-0.61267513
134	0xbf6cda61	-0.9252072
135	0xbfa443cd	-1.2833191
136	0xbf8374c1	-1.0270005
137	0xbf6a26d5	-0.914655
138	0xbf99aeb3	-1.2006439
139	0xbf777ffa	-0.9667965
140	0xbf90ee69	-1.1322757
141	0xbf0cf626	-0.5506309
142	0xbf499c72	-0.7875434
143	0xbf880b33	-1.0628418
144	0xbf639536	-0.8889955
145	0xbc08562d	-0.008321327
146	0xbe9868f1	-0.29767564
147	0xbeee8244	-0.4658376
148	0xbf8f754e	-1.1207674
149	0xbee505f1	-0.44731095

fc3.weight f4 [4, 150]
0	0x3e9bad45	0.30405632
1	0xbf545ead	-0.82956964
2	0xbf8f46de	-1.1193502
3	0xbec43a6d	-0.38325825
4	0xbf1d3b5c	-0.614187
5	0x3f85eefd	1.0463558
6	0x4014ba08	2.3238544
7	0x3e637676	0.22213158
8	0xbf9063b0	-1.1280422
9	0xc02a5225	-2.6612637
10	0xbf6c49d4	-0.9230015
11	0xbf8400c9	-1.031274
12	0x3f5c75d6	0.86117303
13	0x3f0f6f76	0.5602945
14	0xbeadf81a	-0.3397835
15	0xbf7949ac	-0.9737804
16	0xbff1a20c	-1.8877578
17	0xbfaf4a12	-1.369448
18	0x3f067d55	0.5253499
19	0xbfa51c3c	-1.2899241
20	0xbe0c5690	-0.13704896
21	0x3e0f1073	0.13971119
22	0xbf6bc8ba	-0.9210316
23	0x3fb86aa5	1.4407545
24	0xbfa66e39	-1.3002387
25	0xbf908aa5	-1.1292311
26	0xc03f685c	-2.9907446
27	0x3ea25292	0.3170362
28	0x3f9dc4ce	1.2325685
29	0x3e14e686	0.14541063
30	0xbf95f1ea	-1.1714451
31	0xbfad2203	-1.3526005
32	0xbf478e3a	-0.77951396
33	0x3fcbc0e9	1.5918247
34	0x3fdb1d19	1.7118255
35	0x3ff47a5c	1.9099841
36	0x3f1e66b0	0.6187544
37	0x3f3a9550	0.7288408
38	0xbfc93c7e	-1.5721586
39	0x3fcbe962	1.5930598
40	0xbf67f609	-0.90609795
41	0xbfeda11c	-1.8564792
42	0xbe823ca3	-0.25436887
43	0x404735c9	3.1126578
44	0x3eca5ae7	0.39522478
45	0x3f802b30	1.001318
46	0x4011523e	2.2706447
47	0x3f82d032	1.0219786
48	0xbdfaa4b9	-0.122384496
49	0xbf9c2208	-1.2197886
50	0x3fced28a	1.6158001
51	0x3f9d7fb2	1.2304595
52	0x40745e4b	3.8182552
53	0x3eb8e43a	0.36111623
54	0xbda0551b	-0.078287326
55	0xbfe8f621	-1.8200113
56	0xc00cd467	-2.200464
57	0xbf4a0f83	-0.7892992
58	0x3e97e2e3	0.29665288
59	0xbf0d53a7	-0.5520577
60	0xbe20c2b6	-0.15699276
61	0x3fbb010f	1.4609698
62	0xbe992c06	-0.299164
63	0x3da4721b	0.080295764
64	0xbde33a42	-0.11095096
65	0x3fce5f81	1.6122895
66	0xbe5cdd57	-0.2156881
67	0x3f093a1d	0.536043
68	0x3df36452	0.11884369
69	0x3ff30ba5	1.8987929
70	0xbf9a4ff1	-1.2055646
71	0xbd2b84c8	-0.041874677
72	0x3fef4cca	1.8695309
73	0xbf3be888	-0.7340169
74	0xbf902502	-1.1261294
75	0x3d555a6a	0.05208818
76	0xbf1e68a1	-0.618784
77	0x3fb684f8	1.4259329
78	0xbfc91a27	-1.5711106
79	0xbfeb8bd9	-1.8402053
80	0xbe350814	-0.17678863
81	0x3fe6b4e5	1.8023955
82	0xbfaa2802	-1.329346
83	0xbf9b88b6	-1.2151096
84	0x3eaa6029	0.3327649
85	0x3fc28458	1.5196638
86	0x401c870c	2.4457426
87	0xbf57691a	-0.8414475
88	0x3fac054e	1.3439119
89	0xbfaedc55	-1.366099
90	0x3f7d82b3	0.99027556
91	0xc0043956	-2.0659995
92	0x400ee575	2.232755
93	0x3ffa3553	1.9547523
94	0xbfd96401	-1.6983644
95	0xbf503132	-0.81325066
96	0x3fa7524d	1.3071991
97	0x402a7aef	2.6637533
98	0xbafc0567	-0.0019227684
99	0xc024e000	-2.5761719
100	0xbfaebffa	-1.3652337
101	0x3fa134ff	1.2594298
102	0x3ec5ead7	0.3865573
103	0xbfe5a979	-1.7942344
104	0xbfc0c7f5	-1.5061022
105	0xbfbf6f16	-1.4955776
106	0xbfc0a905	-1.5051581
107	0x3ef4a769	0.47783974
108	0x3ff7446e	1.9317758
109	0x401009c2	2.2505956
110	0xbf552a7d	-0.83267957
111	0x3eb87742	0.36028486
112	0x3d48edca	0.0490549
113	0x40372742	2.861771
114	0x3fcff1cf	1.6245669
115	0xc00a540c	-2.1613798
116	0x3f8c97bb	1.0983804
117	0x3f1f964e	0.6233872
118	0x3fc0c8ad	1.5061241
119	0x3f04b9ed	0.518462
120	0xbd8accfa	-0.067773774
121	0x3eeb7531	0.45987847
122	0xbe82be6d	-0.25535908
123	0x3e554a37	0.20829092
124	0x401350f8	2.301817
125	0xbec9ced2	-0.39415604
126	0x3f11b52d	0.5691708
127	0xbfc445f0	-1.5333843
128	0xc01f1cdc	-2.4861364
129	0x3ff2cda2	1.8969004
130	0xbe9da460	-0.3078947
131	0x3fa27f9c	1.2695193
132	0x3fffdfa6	1.9990127
133	0xbfa44500	-1.2833557
134	0xbe45c0f8	-0.19311893
135	0xbda897fc	-0.08232114
136	0xbfae87f9	-1.3635246
137	0x3f91fec9	1.1405879
138	0x3e986c98	0.2977035
139	0x3faecccf	1.3656253
140	0x40054b56	2.0827231
141	0x3e0eeb13	0.13956861
142	0x3f7ac498	0.9795623
143	0xbeefe480	-0.4685402
144	0x3fb925e6	1.4464691
145	0xbee759a2	-0.45185572
146	0xbf2c382c	-0.6727321
147	0x3db8eb0a	0.09029205
148	0x40010920	2.016182
149	0x3e7fe0f9	0.24988164
150	0x3f94f22b	1.1636404
151	0x3fd06c98	1.628314
152	0xbc691ba7	-0.014227784
153	0xbf7319b2	-0.9496108
154	0xbf3f87b9	-0.7481647
155	0x3fd60170	1.6719189
156	0xbf615d83	-0.8803331
157	0xbf0caec0	-0.5495415
158	0x3e78fbf8	0.24314868
159	0x3eb747aa	0.35796863
160	0xc01fb3a7	-2.49534
161	0x3fc69ea1	1.551716
162	0x3fd211de	1.6411703
163	0x3ff00207	1.8750619
164	0xbff03e15	-1.8768946
165	0x3f0a4c99	0.5402313
166	0x3f85f840	1.0466385
167	0xbedbace7	-0.42905352
168	0x3f8b4535	1.0880495
169	0x3f92f2a1	1.1480294
170	0xbe85197a	-0.25996
171	0x3e75ba21	0.23996784
172	0x3f9179a1	1.1365243
173	0xbe849ee1	-0.25902465
174	0x3f846af8	1.0345144
175	0x40405d35	3.005689
176	0xbf85c6d0	-1.0451298
177	0xbad4939e	-0.001621831
178	0x3f6cb4db	0.92463464
179	0xbfb3827c	-1.4024196
180	0x3e5a187b	0.21298401
181	0xbe346c15	-0.17619355
182	0xbd04566f	-0.032308992
183	0xbea2dbc8	-0.31808305
184	0xbb7d8f6c	-0.0038690222
185	0x403ba167	2.9317262
186	0x3c3920fd	0.011299369
187	0xc003fd12	-2.0623212
188	0x3f93cf91	1.1547719
189	0xbf4ffd2d	-0.8124569
190	0x3ef60217	0.4804847
191	0xc06083e2	-3.5080495
192	0xbf711fb6	-0.9418901
193	0x40062faf	2.0966604
194	0xbfc374fd	-1.5270077
195	0x3f0b2645	0.5435527
196	0x404d6271	3.2091334
197	0x40197573	2.3977935
198	0xc01ea879	-2.4790328
199	0xbf8a3ace	-1.0799196
200	0xbe17d117	-0.14825855
201	0x3f880a2e	1.0628107
202	0xbe7fee4e	-0.2499325
203	0x40340ed9	2.8134062
204	0x40258cdb	2.5867221
205	0xbff51eb0	-1.914999
206	0x3deeb680	0.11655903
207	0xbf993e3c	-1.1972117
208	0x3fd46dce	1.659601
209	0xbffc320b	-1.9702772
210	0xbf27672f	-0.6539182
211	0x3fd662e0	1.6748924
212	0x4031d97b	2.778899
213	0xbf8cc0e8	-1.099637
214	0x4010a474	2.2600374
215	0xbf8d1cb0	-1.102438
216	0xbfde429f	-1.7364081
217	0xc004d95d	-2.0757668
218	0xc044adfe	-3.0731196
219	0xbe536209	-0.20642866
220	0xbfc00988	-1.5002909
221	0x3fefe38e	1.8741319
222	0x3e184063	0.14868312
223	0xc04d78f8	-3.2105083
224	0x3f6ac803	0.91711444
225	0x4028fcf5	2.6404393
226	0x3e66810a	0.22510162
227	0xbfa2ef80	-1.272934
228	0xbf9155b6	-1.1354282
229	0xbf97b4a5	-1.1852003
230	0xbfa8c7e6	-1.3186004
231	0xbffd2bb7	-1.9778966
232	0x3f273bb6	0.65325487
233	0x3e9e2cc4	0.30893528
234	0xbe4aa90c	-0.19791049
235	0xbf2e9110	-0.681901
236	0xbf8b2917	-1.0871915
237	0xbfa1634f	-1.2608432
238	0x3fdd5759	1.7292281
239	0x3ef99994	0.48749983
240	0xbf03162f	-0.51205724
241	0x3fb6fe3c	1.4296336
242	0x3ceda9a1	0.02901155
243	0x3f8117a1	1.0085336
244	0x3f16b8be	0.58875644
245	0x3da43d06	0.08019452
246	0x3f069d0e	0.52583396
247	0x3e8824e2	0.2659064
248	0xbdede731	-0.11616362
249	0x3f8c131d	1.0943333
250	0xbe8ff75b	-0.28118405
251	0xbfd3e72f	-1.6554927
252	0x3feb28eb	1.8371862
253	0xbf8e2b85	-1.1107031
254	0xc01a2a52	-2.408833
255	0xbf1728c3	-0.5904657

fc3.bias f4 [4]
0	0xbee4fff7	-0.44726536
1	0xbd879108	-0.066194594
2	0x3e4b9226	0.1987997
3	0x3db80519	0.08985347
