p2_continuous-control/checkpoint_critic_target.pth (torch_old, 151815 bytes, 5 tensors)

fcs1.weight f4 [200, 33]
00000000: b8ad 433e cecb 893e f855 5dbd 72f7 33bf
00000010: adbb d53e 5346 3fbe fdb5 c9be 0d4c 83bd
00000020: 5e5a 62bd 8aac c1be e977 ac3d af2c ed3d
00000030: ac10 043e 0928 2ebe 2e34 ccbd 32b5 70be
00000040: a44a 2f3f 721d f6be 5f37 1cbe 9a58 c0be
00000050: 0588 7e3d 2ccd debd 306f 5b3e c9b2 9d3b
00000060: 1ef6 efbc 3038 80bd 4e40 a4bd 0f83 df3f
00000070: 4aca 613d acc1 2c3d 1bd9 e0bf 1067 173c
00000080: 4202 5dbe 0e46 a33d 1108 413f d159 bc3e
00000090: 3c00 4ebf ce28 0dbe 58e7 a03d f228 443c
000000a0: e740 b53d d423 0bbf 64db 46be 6943 32be
000000b0: 8d4c f0bd faba 113e c52d 13be 9941 79be
000000c0: e5c2 81be b75e e83e 435e 993d 6f7f 043f
000000d0: f20d c9be d20a 22be fd1c 06ba 9c99 423e
000000e0: 9912 4bbe 06ad 7cbd 2ca0 18be 9958 2a3d
000000f0: 0eee c63f 1887 18bd ca70 53bd 0860 d3bf
00000100: e0cc 97bc 35ff 4ebf fe33 cebc 517c e23e
00000110: ce81 55bd 0d0f 40bf c744 6e3e 64b3 733e
00000120: bd9d 10bf 21c7 4ebe ee34 0abd d6e1 fabd
00000130: a21d c03d 7e8c 6f3d f6af c93d 6652 013d
00000140: 35f0 443d 44da 17bd 4bdc 4c3e 4150 d7bd
00000150: 3809 3a3e d49e 82bd 8f2b 513d 00fd f13d
00000160: db00 bdbd 2c98 d63d dc23 573d 6820 293d
00000170: ba5d 95bd fe7a f53f 75e6 73be a0cf aebc
00000180: 7e9e fdbf dca3 10bd e377 9cbe f6d4 9fbe
00000190: 335d 633f 8d8f 783d 7750 fcbe c32d 6f3e
000001a0: 4a32 cf3e 6696 ba3b e718 90bd 276e d13e
000001b0: 7a0f 4b3e 2195 a0bd 5d9d 073e a167 d2bd
000001c0: ea8c 4abe e83d fc3d f903 bf3d 31a4 bc3e
000001d0: a5eb df3e ab07 923f 2d22 b7bb 7013 243e
000001e0: ad6c 95bc 5f30 353e 8a4b f23d cb37 1bbc
000001f0: f5fb 47bd 1a2e 2a3e e4d2 843f dd26 80be
00000200: 10b2 69bd 9d94 8bbf bfdd dc3c de1f c33f
00000210: b3f3 09bf 8740 6bbe 3668 ab3b 48d6 153e
00000220: c53c 0f3d 88b9 1cbf d037 233c b50b 183e
00000230: ecd3 ff3d f186 a5bd f5dd 76bc e766 34bd
00000240: 58b6 30bd adaf 563f 6998 bb3d e0aa 5ebe
00000250: 522e d43e 2da5 e1bc f374 86bc 6fae 07be
00000260: 5519 38be 50b6 273d 2c05 ca3d f95a dd3d
00000270: 06da 963c 74a0 703d 4fb3 febe 9ba9 183f
00000280: 625c 553e 30e9 923b e765 19bf 2df2 6fbd
00000290: 7a6f c2be 2512 59be a793 c73e 35d8 093c
000002a0: 8ce2 87bf 8fb1 f5be 60a9 20bd 7685 50be
000002b0: d4a7 0f3d ff32 f5be cfae 70bd d0d2 a03d
000002c0: ee12 d23d 15cd 2fbc 3fa5 2f3e 73a9 45be
000002d0: 969b c9bd f759 883e 054a f03d 30e1 a43e
000002e0: 91da b0bc 39fb a4bd 6106 f83d 1b6f 89be
000002f0: 0aba 3b3e f383 783d f263 19bd 5ea5 28be
00000300: 5a51 d83f 479d 0ebe 1b23 83bd 54de cfbf
00000310: a6b8 afbc 4312 733e 1944 9c3e 6599 5c3d
00000320: 155d d7be 0312 d9be 631d 0fbf 06cc 03bf
00000330: 3d77 91be b039 c03b b2b8 913c b6d5 093e
00000340: 1433 2e3e 00ee 1a3e 44b1 4b3d 83e0 a4be
00000350: 85b7 1b3e 3d4c 0a3e d41a edbe e93f 783e
00000360: 3f1c 993e a86a 0fbe 2271 d8bd 0dc6 8b3d
00000370: db61 3a3e 3508 2a3e 81ac 9dbc e8b4 2fbd
00000380: 8229 a7bc 921e c33f aa7a aebd e9e0 47bd
00000390: 96da cfbf c492 a23c 0482 0fbf c76e 8fbd
000003a0: 10cf d73e 8180 00bd 3a0a 20bf 7579 1a3f
000003b0: 5264 c83f a776 023e abc6 443e d88b b8bc
000003c0: 3e38 a9bb 3b83 e7bd cf72 c7bd e904 363e
000003d0: a20b 13bf 4b36 71be eb07 a53e 05ec af3e
000003e0: 5f47 cebd 032d c3be e87e 2d3e 62b1 3fbd
000003f0: 6d68 023e 0aeb 2ebd 3ce9 3bbe 614a 18be
0.19109237 0.26913303 -0.054037064 -0.70299447 0.41744748 -0.1867917 -0.3939666 -0.0641099
-0.055261962 -0.3782695 0.084213085 0.11580788 0.12896985 -0.1700746 -0.0997089 -0.2350662
0.6847327 -0.4806934 -0.15255497 -0.37567598 0.062141437 -0.10878977 0.21429133 0.0048125726
-0.029292163 -0.06260717 -0.08020078 1.7461871 0.05512456 0.042176887 -1.7566255 0.009240881
-0.21582893 0.07972346 0.75402933 0.36787274 -0.8046911 -0.13785097 0.07856625 0.011972653
0.0885027 -0.54351544 -0.19419628 -0.17408527 -0.11733351 0.14231482 -0.14372928 -0.2434143
-0.25344005 0.45384762 0.07488682 0.5175695 -0.39268452 -0.1582444 -0.0005116014 0.1900391
-0.19831313 -0.061688446 -0.1490485 0.0415884 1.5541399 -0.03723821 -0.051621236 -1.6513681
-0.01853031 -0.80858165 -0.025171276 0.4423547 -0.052125745 -0.75022966 0.23268424 0.23798901
-0.5649069 -0.20193149 -0.033741884 -0.12250106 0.09380652 0.058483593 0.09848015 0.031572722
0.04808064 -0.03707339 0.2000591 -0.10513354 0.18167579 -0.0637795 0.05106693 0.11815834
-0.09228679 0.10478243 0.052524433 0.04129067 -0.072932675 1.9178159 -0.23818381 -0.021339238
-1.9813993 -0.03531252 -0.30560216 -0.31217164 0.88814086 0.060683776 -0.4928014 0.233573
0.40468055 0.0056941984 -0.07036 0.40904352 0.19830123 -0.07840944 0.13243623 -0.10273672
-0.19780317 0.12316495 0.093269296 0.36844018 0.4373447 1.140859 -0.005588791 0.1602304
-0.018240297 0.17694233 0.11830814 -0.009473751 -0.04882427 0.16619149 1.0376859 -0.2502965
-0.05705458 -1.0904728 0.026961206 1.52441 -0.5388748 -0.22973834 0.005230929 0.14632523
0.034970064 -0.612206 0.009962037 0.14848216 0.12491593 -0.08082379 -0.015067567 -0.044043448
-0.043142647 0.8386181 0.09159929 -0.21744871 0.4144159 -0.027544582 -0.016413188 -0.13250135
-0.17978413 0.04094535 0.09864268 0.10808367 0.018414509 0.05874677 -0.49746177 0.596338
0.20836022 0.0044833645 -0.59921116 -0.058580566 -0.37975675 -0.21198328 0.38979837 0.008413364
-1.0616012 -0.4798703 -0.03922403 -0.20363411 0.035072163 -0.4789047 -0.05876046 0.07852709
0.10257517 -0.010730048 0.1715288 -0.19302921 -0.09844129 0.26631138 0.11732868 0.32203054
-0.021588596 -0.080557294 0.12110592 -0.2684258 0.18332687 0.06067271 -0.03744883 -0.16469333
1.6899827 -0.13927184 -0.0640318 -1.6239724 -0.021450352 0.23737435 0.30520704 0.053857226
-0.42063203 -0.42396554 -0.55904216 -0.5148319 -0.28411284 0.005866252 0.017788265 0.1346043
0.17011672 0.15129852 0.0497296 -0.3220254 0.15206726 0.13505645 -0.4630953 0.2424313
0.29904363 -0.1400553 -0.10568453 0.068248846 0.18201391 0.16604693 -0.019247295 -0.042897135
-0.020405535 1.5243704 -0.0851949 -0.048798475 -1.6238582 0.019845374 -0.56057763 -0.07003551
0.42150164 -0.03137255 -0.62515604 0.6034158 1.5655615 0.12740575 0.19216411 -0.02252762
-0.0051641753 -0.11304327 -0.09738695 0.1777531 -0.57439625 -0.23555867 0.32232603 0.34359756
-0.10072207 -0.3812028 0.16942942 -0.046800025 0.12735148 -0.04270462 -0.1835069 -0.14872123

fcs1.bias f4 [200]
00000000: e295 ebbf 465e d1bf a861 fcbf c05d 6fbf
00000010: 03a2 30bf 364e e0bf 6e68 b4bf 4d7d 8cbf
00000020: dcf1 dabf c291 53bf 4eba cfbf 5d38 b6bf
00000030: d97d 673f 028c 9abf 3759 d9bf bf6f cc3e
00000040: e500 b3bf 8d76 dabf f72c adbf 7eac c4bf
00000050: 62b3 7cbf d87d 67bf a6ce a7bf bebe d4bf
00000060: a4aa b2bf e830 acbf 8c8a afbf 8292 adbf
00000070: a860 81bf faf3 19bf 1162 a6bf 388f 91bf
00000080: 0c3c a8bf 9895 c2bf f106 e2bf 27ff 81bf
00000090: 7270 f1bf 3308 87bd e927 96bf e87f c9bf
000000a0: c8e1 42bf 13c1 c7bf a347 14bf 7538 d1bf
000000b0: c39e 243f ee9e d4bf a412 8fbe b4ba f2bf
000000c0: 27bb 0cbf d11a bbbf 892c edbe baf3 e1bf
000000d0: 83df a3bf 9227 e9bf accf b6bf ce79 71bf
000000e0: ca75 c5bf 8a16 c3bf 2b72 dbbf 9680 08c0
000000f0: 0eac 7ebf 89ff 33bf 2f42 d1bf 92b7 e9bf
00000100: 36db bebf 5e40 c3bf b75c 99bf 3686 b5bf
00000110: 6a6e d4bf aa2c 36bf 6e09 ffbe 192d 43bf
00000120: bc17 ddbf 89ec 94bf 2cbc 9bbf 8811 a3be
00000130: 0afd 9f3f 1082 f7bf dcfa c9bf ae3a cdbf
00000140: c21e cdbf f4b8 a33f f6e6 ddbf e69a 50bf
00000150: 98ba cfbf b935 8abf f214 71bf bc0a a3bf
00000160: 22b7 edbf fb15 d2bf 624b d8bf 565c b3bf
00000170: dc7e dfbf becf 28bf 2576 b4bf 6d0e d8bf
00000180: 4a46 cdbf 3824 d0bf 0012 e8be 9ae9 c9bf
00000190: cbe1 b5be 2598 66bf d158 cbbf 7940 b5bf
000001a0: 1c6c ebbf 123a b3bf a145 f0be b0c3 dcbf
000001b0: 582f dbbf 8f66 3fbf 9dd8 a7bf cfc7 cabf
000001c0: 988e 0bbf a09c dbbf 86a0 e33d 987a 9bbf
000001d0: 0d83 c2bf 199d e1bf b18e debf 211e a3bf
000001e0: e54e 9dbf bebf f0bf ad4f 9abf 1c96 5bbf
000001f0: ca0a eebf 46e8 cbbf 8b3d 9cbf abac c3bf
00000200: c212 9bbf eb73 71bf f75a e5bf ef3a d7bf
00000210: a7b7 99bf b0ad 92be 8b6d b73e 9a08 a6bf
00000220: 48a5 26bf 89c0 86bf c4c2 76bf 3c0f f3bf
00000230: 0465 9ebf 6716 bdbf 18ab aabf 918a 40bf
00000240: 5c94 04c0 50e4 323e aadc 7dbd 37a9 eabf
00000250: 67e7 e2bf ffc4 90bf a0f0 60bf 0ac1 b2bf
00000260: 04d7 68bf 6e18 cabf 97aa 39bf 33ad 6fbf
00000270: a122 4bbf 328c 59bf c43d f5bf c64b 99bf
00000280: 0d53 dbbf 6143 003c 2623 6abf 62a0 0bbf
00000290: 5f38 b2bf 4ed7 d5bf e649 14bf a64b abbf
000002a0: 87f8 acbf fa4d 8cbf 153b 95bf d4bf 11be
000002b0: b4b4 9dbf 8008 f0bf 836f d7bf c619 92bf
000002c0: 4c2b 88bf ca1b a1be ebae 95bf 90f1 e8bf
000002d0: ae43 9fbf 6769 dbbf 3927 413d 6509 b4bf
000002e0: 7e45 703e c475 dabf ca23 083f cdff 08bf
000002f0: f2d0 c6bf c9b2 80bf ae6c c1bf d252 f6be
00000300: 3400 8ebc 0a69 73bf d4d5 53bf 3f55 d8bf
00000310: a619 bbbf 14b7 b6bf e25a 31be 51eb f1bf
-1.8405116 -1.6356895 -1.9717302 -0.93502426 -0.6899721 -1.7523868 -1.409437 -1.0975739
-1.710506 -0.82644284 -1.6228731 -1.4235951 0.90426403 -1.2073977 -1.6980351 0.39929006
-1.3984648 -1.7067429 -1.3529347 -1.536514 -0.98711216 -0.904264 -1.3109939 -1.662071
-1.3958325 -1.3452425 -1.3714156 -1.3560336 -1.0107622 -0.60137904 -1.2998677 -1.1371832
-1.3143325 -1.5201902 -1.7658368 -1.0155991 -1.886244 -0.06593361 -1.173093 -1.5742159
-0.76125765 -1.5605797 -0.5792181 -1.6345354 0.6430475 -1.6611001 -0.2794391 -1.8963227
-0.5497307 -1.4617559 -0.4632304 -1.7652504 -1.2802585 -1.8215201 -1.4282126 -0.94326484
-1.5426571 -1.5241253 -1.7144216 -2.1328483 -0.99481285 -0.7031179 -1.6348323 -1.8259146
-1.4910648 -1.5254018 -1.1981419 -1.4181583 -1.6596196 -0.711619 -0.49811882 -0.7624069
-1.7272868 -1.1634685 -1.21668 -0.31849313 1.2499096 -1.9336567 -1.5779681 -1.6033533
-1.6025012 1.2790818 -1.7336109 -0.81486356 -1.6228819 -1.0797645 -0.94172585 -1.2737651
-1.8571513 -1.6412958 -1.6898005 -1.4012554 -1.746059 -0.6594199 -1.4098555 -1.6879402
-1.6037076 -1.6261053 -0.45326233 -1.5774415 -0.3552383 -0.90075904 -1.588648 -1.41603
-1.8392367 -1.4002097 -0.46928123 -1.7247219 -1.7123823 -0.74765867 -1.311298 -1.5842227
-0.54514456 -1.7157173 0.11114602 -1.2146788 -1.5196244 -1.7626067 -1.7387296 -1.274357
-1.2289702 -1.8808515 -1.2055565 -0.85775924 -1.8597043 -1.5930259 -1.2206281 -1.5287069
-1.21151 -0.943175 -1.7918385 -1.681486 -1.2009171 -0.28648138 0.35825762 -1.2971375
-0.6509595 -1.0527507 -0.9639094 -1.8989024 -1.2374578 -1.4772462 -1.3333464 -0.75211436
-2.0715551 0.17469907 -0.06197802 -1.833289 -1.7726868 -1.1310118 -0.87867165 -1.3965161
-0.9095309 -1.5788705 -0.72525924 -0.93623656 -0.79349715 -0.84979546 -1.9159474 -1.1976249
-1.713472 0.007828564 -0.9145988 -0.545416 -1.3923453 -1.6706331 -0.5792526 -1.3382461
-1.3513345 -1.0961297 -1.1658655 -0.14233333 -1.2320771 -1.8752594 -1.6830906 -1.1414115
-1.0638213 -0.31466514 -1.1694006 -1.8198719 -1.2442529 -1.7141541 0.047156546 -1.4065367
0.23464009 -1.7067189 0.5317961 -0.5351532 -1.5532515 -1.0054561 -1.5111291 -0.48110062
-0.017334081 -0.9508215 -0.8274815 -1.6901015 -1.4617202 -1.4274621 -0.17319825 -1.8899938

fc2.weight f4 [150, 204]
00000000: 0d77 1b3f eb02 963d a6b6 de3e 78ee e0be
00000010: cfc1 663e b6b9 c83e 1f83 073f 0473 c53e
00000020: b166 23bf 83d9 57bf 5b4f 26bf 038a 373f
00000030: 1f96 01be 6b7a 80bf 2865 cabe e8eb 09bf
00000040: ce56 d2be d25d 07be 5f29 15bf 8956 1abf
00000050: edcd b53e f0f3 373c 00dd 963e e8b6 bb3c
00000060: d977 f6be 164e 00bf d718 493f d886 8dbe
00000070: 8a3e 6ebe 9920 6abf b734 47bf b8af 7c3e
00000080: b687 743e c538 f13e 6f1d b83e 1f4a a93e
00000090: 9699 7c3d 3105 96be cba9 b9bd 7699 f6bd
000000a0: 82ee d2be 6983 c2bd cf97 e5be 6a79 e33d
000000b0: 37e0 b6bf 3356 a0bb 62a8 0bbf 1471 b83a
000000c0: c64a 903e c683 90be 2676 cabe 688e 453e
000000d0: c63a 023f 5b94 053e 9dda 7f3c 7b34 8cbe
000000e0: 1b2d 153f 32bb 18bf 2472 533e 3e00 733e
000000f0: 5536 ab3e 2de4 063f c5ff ea3e 256e d0be
00000100: 5cc4 6dbc c078 c8be f17e 35be b6d1 05bf
00000110: d0fd 193f f9ef b03e bcf7 fdbe 0db9 8abd
00000120: b6cc 38bf 366d e13e ab54 efbe f47d aabe
00000130: d63a 7b3d a58e febd 3a34 15bf 3741 ba3d
00000140: edbe 573f 0fbe f0bb 1965 47be 13a2 4c3e
00000150: 9693 e23e 92f4 9f3e c171 21be 066a ee3e
00000160: 4069 863d 3266 283f 6c72 cc3b bc03 a8be
00000170: 89a4 babe 312d 233e bef2 fd3e bd9e 27bf
00000180: e25d fe3d 4072 1bbd efb7 23bf e0e2 99be
00000190: 583a babe 308f 16bf 7d70 3fbf 149f f93d
000001a0: 2efc aebe 012f 75bf ace3 6abf c90d 2d3e
000001b0: 30c7 ad3e ac9e bfbe c5fe 16bf 2f72 183e
000001c0: 16d1 b53e 2afe 6ebe a7e7 f73e 0cf5 90be
000001d0: 1864 63be aae0 2b3f 10b6 32bf 4c15 abbc
000001e0: 5916 d1bc ed92 96be ec84 af3e 98d6 f7be
000001f0: e3bd cb3e 862f bdbe e2ac c33e 1919 1fbf
00000200: 8922 3c3e df9d 2d3c 8906 8e3b 8749 ebbe
00000210: 0ddc 38be 2910 80be ae8d efbe c122 30be
00000220: 8cb5 dbbd 2ed2 92be 30f9 fcbe 3f2b 3c3f
00000230: 6618 c6bd 3707 50be 42e6 ccbe b682 28bf
00000240: 80c2 e23e bc35 d4be 8cfa 8e3d abc3 113f
00000250: 2e76 16be 554e 3fbe eb7f 0b3e fc16 c0be
00000260: 4810 043f 764c b6be ba00 ba3e ed52 b9be
00000270: a812 21be 2750 a7be d014 903e f601 cd3e
00000280: 0294 243f 1917 353f 1b85 e6be f4ff e7be
00000290: 58a5 11bf 35d2 d3be 45ab 823e df02 a43e
000002a0: b22c c6bb ddc0 3cbf 04e5 0ebe c6f9 913c
000002b0: 5c33 f6bc 247c a03d f6f6 053f 556a c23e
000002c0: 1929 55bf 8959 3d3f bad7 643e 3fe5 a4be
000002d0: f7ba 36be dc4c d539 ada1 59bf d9ad 42bd
000002e0: 3209 9cbe 48c2 06be fa1f 7e3b a470 d53e
000002f0: f271 f9be 2215 863d a92b 3ebf 5d72 bf3d
00000300: 2292 ea3c 49ce 003d bd90 a23e a93b 90bd
00000310: 9e86 503e 34e7 583e d7f6 5dbd c368 49bd
00000320: 8965 243e 51a9 a73e 16f2 02bf 75f2 e53e
00000330: 211c a8bd 0c9c 3abe 094c 3dbd 6e68 cdba
00000340: 488c b13d 84a1 df3d 14fe 20be dfc7 45be
00000350: 26d7 953d 25ac 4d3e a2fe f0be a1d0 b8bd
00000360: 2ee7 92be 7b3c 87be 5727 3bbe 0b56 2abf
00000370: c87a f83e a433 30bd dfe8 f4be 5d60 d0be
00000380: 40ef 29be 9a2e 0fbf 4075 dd3d a22c 7e3e
00000390: 7613 043e 0c73 8c3e cf22 bebd 2e34 033f
000003a0: e4ab b23e 407e a5be 4e0e 973e 4b36 6e3e
000003b0: 1a46 a83e abb5 02bd fb92 cbbc f1ad d9be
000003c0: d4b7 21be a401 1cbf 8d36 253d 43cd 223c
000003d0: 27ad 073c 03c7 3ebe 1b2d 1c3e a789 69bd
000003e0: d891 2b3e b754 513d 1885 10be 02d4 17bd
000003f0: 073b 883e 676d 8cbd 73bb 38be 040f 2cbe
0.6072853 0.07324775 0.43498725 -0.43931937 0.2253487 0.39204186 0.5293445 0.38564312
-0.6382857 -0.8431627 -0.64964837 0.71694964 -0.12654923 -1.0037359 -0.395303 -0.5387559
-0.41081852 -0.13219383 -0.5826625 -0.6028829 0.3550867 0.011227593 0.29465485 0.022914365
-0.48138312 -0.5011915 0.7855353 -0.2764194 -0.23266044 -0.9145599 -0.7781481 0.24676406
0.23879895 0.47113624 0.35959956 0.33064362 0.06166991 -0.29300836 -0.090655886 -0.12040989
-0.41197592 -0.09497721 -0.44842383 0.11107142 -1.4287175 -0.0048930882 -0.54553807 0.0014071786
0.28182048 -0.28225535 -0.39543265 0.19292605 0.5087093 0.13044874 0.015616086 -0.2738379
0.5827195 -0.5966064 0.2064901 0.23730561 0.3343989 0.5269192 0.45898262 -0.40709034
-0.014512148 -0.39154625 -0.17724206 -0.5227312 0.6015291 0.34558085 -0.4960307 -0.06773577
-0.72187364 0.44028634 -0.46744284 -0.3329922 0.061335407 -0.12429551 -0.58282816 0.0909447
0.84275705 -0.0073468755 -0.1947216 0.19983701 0.44253224 0.3124128 -0.1576605 0.46565264
0.065630436 0.6578094 0.006239226 -0.3281535 -0.36453655 0.15935208 0.4959926 -0.6547659
0.124202505 -0.037950754 -0.63952535 -0.30055904 -0.36372638 -0.58812237 -0.7478102 0.12188545
-0.34176773 -0.9577485 -0.9175365 0.1689979 0.3394103 -0.37425745 -0.589825 0.14887308
0.35511082 -0.23339143 0.48418924 -0.28311956 -0.22206151 0.67139685 -0.69809055 -0.020884179
-0.025523352 -0.2940897 0.342811 -0.4840591 0.3979331 -0.3695032 0.38217837 -0.6214767
0.18372549 0.010596721 0.004334275 -0.45954534 -0.18052693 -0.2501233 -0.4678778 -0.17200758
-0.10727987 -0.2867598 -0.49408865 0.7350349 -0.096726224 -0.20315252 -0.40019423 -0.6582445
0.44289017 -0.41447246 0.06981382 0.5693919 -0.1469352 -0.18682225 0.13623016 -0.37517536
0.51587343 -0.3560521 0.3632868 -0.3619608 -0.15729773 -0.3267834 0.2814088 0.4004056
0.6428834 0.7073837 -0.45023426 -0.45312464 -0.5689292 -0.41371313 0.25521293 0.3203344
-0.0060478086 -0.73731786 -0.1395455 0.017819297 -0.030053787 0.07836178 0.5232996 0.3797175
-0.83265835 0.73964745 0.22347918 -0.3220615 -0.17844759 0.0004068379 -0.8501232 -0.047529075
-0.30475765 -0.1316005 0.0038776384 0.416875 -0.48719746 0.065469995 -0.7428537 0.09347985
0.028634135 0.03144673 0.31751052 -0.07042629 0.20363852 0.21181947 -0.054190483 -0.049172174
0.16054358 0.32746366 -0.51150644 0.44911543 -0.0820849 -0.1822359 -0.04621509 -0.0015671381
0.08669335 0.109194785 -0.15721923 -0.19314526 0.07316427 0.20085199 -0.4706927 -0.09024168
-0.28692 -0.2641333 -0.18276726 -0.6653754 0.48531175 -0.043018 -0.47833917 -0.4069852
-0.16595173 -0.55930483 0.10813379 0.24821714 0.12898049 0.27431524 -0.09283983 0.51251495
0.34896767 -0.32322884 0.295031 0.23262899 0.32865983 -0.031911533 -0.02485036 -0.4251552
-0.15792781 -0.60940003 0.040335227 0.0099366335 0.008281029 -0.18630604 0.15251581 -0.05701604
0.16754854 0.05110618 -0.14113271 -0.03706742 0.26607534 -0.06856804 -0.18040256 -0.16802603

fc2.bias f4 [150]
00000000: 82fb 72be 838f d0bd 8bd4 7dbf a965 edbf
00000010: c1c2 78bf c1ed dfbe 05bb 343f 397c 713f
00000020: 7914 a6bf 3e29 06bf 2d6c 62bf 262b 57bf
00000030: b068 c6bf 60dd 1dbe 8bfd 023f bca7 84bf
00000040: e3ea f4bf c2c0 a9bf ddb9 6739 aad5 453f
00000050: 2519 ea3e 7675 c13d d716 873d 3ea5 debf
00000060: 2010 50bf 741a debf 4cb2 71bf e357 c63e
00000070: 3838 58bf e85d 60bd af7f 973e 2e7a 6fbf
00000080: d78b d4bf 0723 8bbf 0154 7bbf f81e a7bf
00000090: e6d2 44bf 9010 583f 5d4b 53bf 0f6f 64bf
000000a0: 7cb6 023f 62c1 58bf 2670 34bf 17e2 59bf
000000b0: 3d03 4fbf 68bc ba3f cda1 ccbf d9f5 42be
000000c0: 6b8f 803e f659 4a3d 9382 ec3e d4bf 7ebf
000000d0: 7e3a 25bf 7a34 8ebf 046f 0140 760d 76bf
000000e0: 7229 253f d2c5 623d a56d 44bc 4e97 9ebe
000000f0: 5d0e 213f 6889 64bf f485 8bbe c646 11bf
00000100: 8508 2cbf b7b0 62bf ea94 eebf df37 26bf
00000110: a96b 81bf 0363 a33f 8440 28bf fb9e d2be
00000120: be0e 6d3f 4359 5ebf d7fd 79bf fc85 a5bf
00000130: 7589 61be e297 88bf 24c6 ee3e ac98 45bf
00000140: da54 fdbd febf 17be 147c 8cbd 935a 583e
00000150: aa9a 06bf f57b 27bd 4b48 27bf 611e 573f
00000160: 1927 04bf 4eca a5be b207 c83e 1c16 84bf
00000170: 5532 87bf a8f6 7abf e906 47bf b5ec 343f
00000180: 6f47 983f 52f9 5dbf 4f75 f63e c718 f6be
00000190: 9460 c5bf f320 28bf 38c2 fabf 7f57 a5bf
000001a0: 1eb5 1d3e 5f3d 8bbf 38d3 efbf 7c97 61bf
000001b0: 279d 71bf 51fc ecbf 19ba 65be 1c9b 66bf
000001c0: 07e3 81bf 42eb 38bf 5f98 1cbf a371 b33e
000001d0: ea91 54bf c065 82bf b3a3 44bf fadf a53e
000001e0: 347e 1abf 639b 1fbf 36c9 82bf 672e 71bf
000001f0: 1fb1 48bf 62a1 7fbf dce8 76bf b6b4 f83e
00000200: ca24 1cbe e7b5 7a3d 5575 b4bf 9b00 57be
00000210: cf16 f8bf 7e34 6ebf e40b f2bd cdb6 86bf
00000220: cb7c 76be f67c 74bf f8a0 eabf 1b49 123f
00000230: 2df4 38bd d03e 7ebf e0fa 7dbf 22d4 c5bc
00000240: cf6e 2ebe 888b 02be 78f7 61bf a04b 05bf
00000250: 0ffc e3be 6f1c 88bf
-0.23728755 -0.10183623 -0.9915244 -1.8546649 -0.9717217 -0.4373608 0.7059787 0.94330174
-1.2974998 -0.5240668 -0.88446313 -0.84050214 -1.5500698 -0.15416479 0.51168126 -1.0363688
-1.9134182 -1.326195 0.00022099116 0.7727915 0.4572231 0.09446232 0.06596153 -1.7394178
-0.81274605 -1.7351823 -0.94412684 0.38738927 -0.84460783 -0.054777056 0.29589602 -0.93545806
-1.6605176 -1.0870064 -0.98175055 -1.3056326 -0.76884305 0.8440027 -0.8253687 -0.8923196
0.510597 -0.8467008 -0.70483625 -0.8511061 -0.80864316 1.4588747 -1.5986878 -0.19039096
0.2510942 0.0494022 0.4619337 -0.99511456 -0.64542377 -1.1109765 2.0224009 -0.9611429
0.64516366 0.055364437 -0.011989032 -0.3097481 0.6291254 -0.89272165 -0.27250636 -0.56748617
-0.672005 -0.88550895 -1.8639195 -0.64929 -1.011098 1.2764591 -0.65723443 -0.41136917
0.9260062 -0.8685495 -0.97652954 -1.2931514 -0.22025092 -1.0671351 0.46635544 -0.77186084
-0.123697 -0.14819333 -0.068596035 0.21128301 -0.5257975 -0.0408897 -0.65344685 0.8403073
-0.5162216 -0.3238091 0.3906837 -1.0319247 -1.0562235 -0.9803262 -0.7774492 0.70673686
1.18968 -0.8670856 0.48136374 -0.4806578 -1.5420098 -0.65675277 -1.9590521 -1.2917327
0.15401122 -1.0878104 -1.8736334 -0.8812177 -0.9438042 -1.8514501 -0.22434272 -0.9008043
-1.0147408 -0.72233975 -0.6117 0.35047635 -0.8303515 -1.0187302 -0.76812285 0.32397443
-0.6034882 -0.62346476 -1.0217655 -0.9421143 -0.78395265 -0.99855626 -0.96449065 0.48575372
-0.15248409 0.06120863 -1.4098307 -0.20996325 -1.9381961 -0.93048847 -0.11818674 -1.0524536
-0.24071042 -0.95503175 -1.8330374 0.571428 -0.04515474 -0.99314594 -0.9921093 -0.024149004
-0.17034458 -0.1274854 -0.8826823 -0.5206852 -0.44528243 -1.0633677

fc3.weight f4 [1, 150]
00000000: 8726 07bd a917 e0b9 c091 00bd 0643 c0bd
00000010: 9b75 52bb 7eef ed3a 327f 143d d49e 753a
00000020: c480 b7ba 4d27 eebc 7b78 7a3a 9415 28ba
00000030: 6c14 c4bb b2ca bb3a 8684 e43c 559a 42bc
00000040: a6f0 19be 5361 08bc b36e 973c 4bb5 a13c
00000050: deda ca3b ff25 923b 160e c33c 7be4 adbd
00000060: cbd0 1c3d 963c a9bd 0a1a 153c 0960 6e3c
00000070: 1f95 fcbc cde1 cc3c 783e 233c 8950 ac3a
00000080: 69e5 dfbd d7a4 11bd 2cd2 b1b9 fbb9 d43a
00000090: 101e 1bbd 9241 0d3d cf3c 22bc 3acc f4bb
000000a0: ce4b 343b 3659 063b 5490 b7bc 7a60 2a3b
000000b0: 06e3 9bbc b1cb 4a3d c153 62bd ddd2 e53b
000000c0: 8d0a 0abb bb29 333b 0834 a439 ba70 e6bb
000000d0: 36fa 4dbd 645f 643b 2928 1a3e 9946 a0bc
000000e0: 04fa b5bc 7313 633c 2fda ec3a ceaa 37bd
000000f0: 071b 9c3c 51ee 88b9 1855 8f3a fda8 163a
00000100: e934 2b3c 7d6b 32bd 3321 05be 3f50 b63c
00000110: 6da4 4a3b 7a4f 9b3d af0b feb9 d88f 41bb
00000120: ff54 dd3c a7f0 e1bc 31ce 2aba 9a96 bdbb
00000130: 9023 11bb d1ec 073c 461c 083c 032e 94bb
00000140: a069 a83b 366e 5dbc ffe3 a1bc 16f9 763d
00000150: e664 26bb 8570 61bc 7e3b 013b 56d6 8b3c
00000160: 6c56 79bc f33c 3cb9 a12e 84bb c017 18bc
00000170: 8598 0b3b d702 78bb 8cd8 13bc 16ea 063d
00000180: ff8f 063a 3027 94ba 2475 7bbb 3e8d f6bc
00000190: 2a98 1fbd 1bf8 d93b b577 2bbe 7939 11bd
000001a0: a333 9d3b 9438 71bd 088c f6bd a870 843b
000001b0: 63b2 4938 cbd1 cbbd 372b 5e3a 8593 98bc
000001c0: 1b05 79bc 79b6 95bb f0f5 f7ba 371a fc3b
000001d0: 5edf 90bc 0644 c8bb 62b9 063b c333 9cba
000001e0: 59d4 ecbc 07f7 bd3b 83f8 5fbb 121e 993b
000001f0: f642 9dbd bff6 11bd 95b2 9e3c 4f7a d039
00000200: 5098 71bc 71b6 303c f861 0cbd 0dcd f83b
00000210: 5089 30be f53f 7b3c fc1b 4f39 1523 033d
00000220: c694 3fbb 4952 553c 193a fcbd b8b7 443c
00000230: f036 ddba b8aa e0ba e2bf 64bb 2daf b43c
00000240: 1f85 ac3c c33d da3a c9c0 67bb 7b4c 8a3c
00000250: c98b 333b aaf2 8fba
-0.032995727 -0.00042742238 -0.031388998 -0.09387784 -0.0032113555 0.0018153039 0.036254115 0.00093696755
-0.0014000167 -0.029071474 0.0009554696 -0.0006411907 -0.00598388 0.0014327376 0.027895223 -0.011877616
-0.15033206 -0.008323985 0.018485403 0.019739768 0.006190642 0.004460096 0.023810428 -0.08490845
0.038285058 -0.08263509 0.0091004465 0.014549264 -0.030832825 0.025010014 0.009963624 0.001314656
-0.109324284 -0.035557594 -0.0003391666 0.0016229743 -0.037870467 0.03448636 -0.009902193 -0.0074706348
0.0027511003 0.0020499951 -0.022407688 0.0025997446 -0.019029152 0.04951066 -0.055255655 0.0070136623
-0.0021063418 0.0027338106 0.00031319284 -0.007032481 -0.050287448 0.0034846896 0.15054382 -0.019564914
-0.022213943 0.0138596175 0.0018070395 -0.044840626 0.019055856 -0.000261175 0.0010935394 0.0005747227
0.0104496265 -0.04355954 -0.13000946 0.022255061 0.003092076 0.07583518 -0.0004845536 -0.00295352
0.027018068 -0.027580572 -0.000651571 -0.0057857754 -0.002214644 0.0082962075 0.008307522 -0.0045220866
0.0051395446 -0.013515046 -0.019762037 0.06029614 -0.002538973 -0.013759737 0.0019719298 0.017069977
-0.0152183585 -0.00017951783 -0.004033879 -0.009283006 0.0021300626 -0.003784349 -0.009023797 0.032938085
0.00051331514 -0.0011303183 -0.0038369382 -0.030096646 -0.038963474 0.006651891 -0.16744883 -0.0354552
0.0047974153 -0.058891848 -0.120384276 0.00404175 4.808827e-05 -0.09952124 0.00084750674 -0.01862503
-0.015198971 -0.0045688716 -0.00189179 0.0076935547 -0.017684635 -0.0061116247 0.0020557274 -0.0011917282
-0.028909849 0.00579727 -0.0034175224 0.004672774 -0.076787874 -0.035635706 0.019372264 0.0003976398
-0.014745787 0.010785685 -0.034273118 0.0075928033 -0.1723988 0.015335073 0.00019751483 0.03201588
-0.0029232963 0.013020107 -0.12315769 0.012006693 -0.0016877335 -0.0017140722 -0.003490441 0.022056187
0.02105957 0.0016650487 -0.0035362712 0.016882172 0.002739655 -0.0010982354
